HandyRL/models/1.pth (torch, 155707 bytes, 22 tensors)

conv.weight f4 [32, 1, 3, 3]
0	0xbe16fb6b	-0.14744346
1	0x3e59e5a0	0.21279001
2	0xbe818c20	-0.2530222
3	0x3e8e9450	0.27847528
4	0xbe5aa207	-0.21350871
5	0xbc930f5a	-0.017951656
6	0x3de45b20	0.11150193
7	0x3dc73d94	0.09728542
8	0xbe820fba	-0.25402623
9	0x3ddadbda	0.106864646
10	0x3e8b0f80	0.27160263
11	0xbd15e2d2	-0.036593266
12	0x3dee217f	0.116274826
13	0xbe959398	-0.29214168
14	0x3d829f7c	0.063780755
15	0x3d7b895f	0.061410304
16	0xbd2aeb6e	-0.04172843
17	0xbe8775ff	-0.2645721
18	0x3e24d724	0.16097695
19	0x3e9b86ee	0.3037638
20	0xbdd60c3a	-0.10451551
21	0x3e869506	0.2628557
22	0xbe8e8f87	-0.27843878
23	0xbe8bd1a5	-0.27308384
24	0xbe081cab	-0.13292186
25	0x3d2c9864	0.04213752
26	0x3e8cbdfb	0.27488694
27	0xbe9dd1dd	-0.30824175
28	0x3dd9ea7b	0.10640427
29	0x3e635fb4	0.22204477
30	0x3e52b9d4	0.205787
31	0xbd84fe4e	-0.06493817
32	0x3e4d6382	0.2005749
33	0xbe6adefe	-0.22936627
34	0xbd778d82	-0.060437687
35	0x3d1ceb58	0.03831038
36	0xbda3318e	-0.07968436
37	0x3dc8dae8	0.09807378
38	0xbe71cb11	-0.2361262
39	0x3e9386b7	0.28813717
40	0x3e8d6cf5	0.2762219
41	0x3e229fa3	0.15881209
42	0xbe495313	-0.19660597
43	0x3e885b04	0.2663194
44	0xbcd9c873	-0.02658484
45	0x801c0e50	-2.576528e-39
46	0x814ea461	-3.795416e-38
47	0x8202511a	-9.574167e-38
48	0x8182ee4c	-4.80964e-38
49	0x82060519	-9.846228e-38
50	0x826316a4	-1.6683824e-37
51	0x81d947b7	-7.9816116e-38
52	0x824ace34	-1.4899794e-37
53	0x829150b6	-2.135216e-37
54	0x3e63d337	0.22248541
55	0x3e55ac3d	0.20866485
56	0xbe6bc233	-0.230233
57	0x3e20ab98	0.15690458
58	0x3dcff921	0.101549394
59	0xbe6b2e93	-0.22966985
60	0xbe2e0735	-0.16994937
61	0x3d588b9a	0.05286751
62	0x3e3f7c68	0.18699801
63	0x3e73cb64	0.23808056
64	0x3d572c87	0.0525327
65	0x3db18523	0.08667972
66	0xbe3d9777	-0.1851481
67	0x3d7184ae	0.058964424
68	0xbe41f262	-0.18940118
69	0xbe8c3f64	-0.27392113
70	0x3e975470	0.29556608
71	0x3d8e83cd	0.06958733
72	0x3e4f9c3e	0.20274445
73	0xbe7c5157	-0.24640404
74	0xbe141dc9	-0.14464487
75	0x3c731175	0.014835705
76	0xbe8ba8bd	-0.27277175
77	0x3d10301c	0.03520213
78	0x3ca97a03	0.020688063
79	0x3da71aed	0.081594326
80	0xbe792986	-0.24332246
81	0x83e5b0bd	-1.3499987e-36
82	0x845e928c	-2.6163266e-36
83	0x80784b79	-1.1047334e-38
84	0x846e098b	-2.7981147e-36
85	0x84ef164e	-5.6209114e-36
86	0x8500b5e7	-6.051941e-36
87	0x851a092a	-7.2427284e-36
88	0x856514f1	-1.07713746e-35
89	0x85309ad5	-8.3039184e-36
90	0xbb84872d	-0.0040444345
91	0xbe2937b7	-0.1652516
92	0xbdcba5c7	-0.09943729
93	0xbe49aaad	-0.19694014
94	0x3e5717e1	0.21005203
95	0x3e518d6f	0.20464109
96	0xbd0fb875	-0.03508802
97	0xbe272e13	-0.1632617
98	0xbe276469	-0.16346897
99	0xbd9e31bf	-0.07724332
100	0x3e807b86	0.2509424
101	0xbe73f562	-0.23824075
102	0xbe6e5efc	-0.23278421
103	0x3d25e93e	0.04050564
104	0x3d2e4860	0.04254949
105	0xbe877fd9	-0.26464728
106	0x3e64d80f	0.22348045
107	0x3e8768d5	0.26447168
108	0x3d3d4332	0.04620666
109	0x3df6e715	0.12055794
110	0xbe67bdc8	-0.2263099
111	0xbd7b633a	-0.061373927
112	0x3da2033d	0.07910774
113	0xbe3cc108	-0.1843301
114	0x3e7c3230	0.2462852
115	0xbda9eb27	-0.08296805
116	0xbe66a243	-0.22522835
117	0x3e663c4e	0.22483942
118	0xbe08677c	-0.13320726
119	0x3e612264	0.21985775
120	0xbd815826	-0.06315641
121	0xbe3eaa5a	-0.18619671
122	0x3e430be5	0.19047506
123	0x3d295fad	0.04135101
124	0x3e5e3a18	0.21701849
125	0xbdd2173a	-0.10258336
126	0x831e478f	-4.651417e-37
127	0x83818363	-7.6121035e-37
128	0x8367e868	-6.815159e-37
129	0x830d4c04	-4.1523438e-37
130	0x83415d31	-5.682458e-37
131	0x83252fde	-4.854409e-37
132	0x82844218	-1.9433593e-37
133	0x831d1857	-4.6166094e-37
134	0x8314094e	-4.350397e-37
135	0x3dc4c6e6	0.09608249
136	0x3e600044	0.21875101
137	0xbe9179f6	-0.2841336
138	0x3e793e08	0.2434007
139	0xbe7fae9b	-0.2496895
140	0x3e1bb360	0.15205145
141	0xbdb8ec42	-0.090294376
142	0x3ced0cfb	0.028936854
143	0xbe5a5bba	-0.21324053
144	0x3e07f65a	0.1327757
145	0xbd4ad094	-0.04951532
146	0xbe834ae1	-0.25643066
147	0xbe9b7606	-0.30363482
148	0x3e898fd5	0.26867548
149	0x3de7010d	0.11279497
150	0xbe4c2da4	-0.19939286
151	0x3e1fcc98	0.1560539
152	0x3e8df656	0.27727002
153	0x3da02c66	0.07820968
154	0x3e87f98d	0.2655758
155	0xbde98c2c	-0.11403689
156	0x3e181c4c	0.14854544
157	0xbe95122a	-0.2911542
158	0x3a5544d2	0.000813556
159	0xbe9364e5	-0.28787914
160	0xbe17f1c3	-0.14838319
161	0xbe294639	-0.16530694
162	0x3e8a5a6b	0.27022108
163	0x3c4ff70b	0.012693177
164	0x3bde5d4f	0.0067860256
165	0xbcf50e6b	-0.029914102
166	0xbdb399e3	-0.08769586
167	0xbdea7caf	-0.11449563
168	0x3e94d22a	0.29066592
169	0x3daded44	0.084925205
170	0xbd4bba93	-0.049738478
171	0xbe4cc7b8	-0.19998062
172	0x3d09572c	0.0335304
173	0x3e1335ae	0.14375946
174	0xbd9be1a6	-0.076113984
175	0x3e2bd8d8	0.16781938
176	0x3d173885	0.036919136
177	0x0004112f	3.73506e-40
178	0xbd75372f	-0.05986708
179	0xbe51630d	-0.20447941
180	0xbe9bebd7	-0.3045337
181	0xbd62c527	-0.0553638
182	0xbe807abf	-0.25093648
183	0x3e568b91	0.20951678
184	0xbe019748	-0.12655365
185	0xbe2bdb0d	-0.1678278
186	0xbde0de1b	-0.10979863
187	0x3e9767a2	0.29571253
188	0x3e91091d	0.28327265
189	0x3e8dfb6b	0.2773088
190	0x3e45b1ea	0.1930615
191	0x3d387185	0.045030136
192	0x3ca178a2	0.019710843
193	0xbb2c7593	-0.0026315197
194	0xbe7c64a3	-0.24647765
195	0x3e413c69	0.18870701
196	0xbe923740	-0.28557777
197	0xbe5295c0	-0.20564938
198	0x3c4ea71e	0.012613086
199	0x3d3ff9c5	0.04686906
200	0xbe934966	-0.28766936
201	0x3e4b39fb	0.19846337
202	0x3d2a4d1a	0.041577436
203	0xbe685332	-0.22687986
204	0xbe13c781	-0.14431573
205	0x3e453148	0.1925708
206	0xbe291f4d	-0.16515847
207	0x8004f9b9	-4.56926e-40
208	0x8005500a	-4.8789e-40
209	0x8004dd75	-4.46786e-40
210	0x800519ca	-4.68429e-40
211	0x80042633	-3.81045e-40
212	0x80028116	-2.29978e-40
213	0x0005c774	5.30728e-40
214	0x0005595a	4.91231e-40
215	0x00061c46	5.61156e-40
216	0x818877cc	-5.013041e-38
217	0x8131993d	-3.261971e-38
218	0x010e1197	2.60939e-38
219	0x8176f2b6	-4.53572e-38
220	0x810d8147	-2.5990362e-38
221	0x808bb1d6	-1.282893e-38
222	0x810c5b2c	-2.5779352e-38
223	0x81176568	-2.7807075e-38
224	0x00d46eee	1.9508919e-38
225	0x3e5f7086	0.21820268
226	0x3e342032	0.17590407
227	0xbe83f6d4	-0.25774252
228	0xbe021e93	-0.12706976
229	0xbb997527	-0.004683155
230	0x3e8e54ef	0.27799174
231	0x3dab2a8e	0.08357726
232	0x3e1a8656	0.15090308
233	0xbddf4ac5	-0.10902933
234	0xbe84bc39	-0.25924852
235	0xbda4c504	-0.0804539
236	0x3d6397b3	0.055564594
237	0x3e1e5925	0.15463693
238	0x3dfac7c3	0.12245133
239	0xbe275c69	-0.16343845
240	0x3e7d72ed	0.24750872
241	0x3c1173b7	0.008877686
242	0xbe56760b	-0.20943467
243	0xbe37857b	-0.17922013
244	0x3e378789	0.17922796
245	0xbe46c060	-0.19409323
246	0xbccfba3f	-0.025357364
247	0xbdfaeb35	-0.122518934
248	0x3c900591	0.01758078
249	0xbdc8b338	-0.09799808
250	0x3e2a19ea	0.16611448
251	0xbe80c6ef	-0.25151774
252	0xbe72a8aa	-0.23697153
253	0x3e242554	0.16029865
254	0x3e23ca74	0.15995198
255	0x3e856a38	0.260576

conv.bias f4 [32]
0	0xbd25c336	-0.04046937
1	0x3e53904e	0.20660517
2	0x3e62970c	0.22127932
3	0x3e27e163	0.16394572
4	0x3e12964e	0.14315149
5	0x8166e70a	-4.241009e-38
6	0x3e7434d6	0.2384828
7	0xbe21a727	-0.1578642
8	0x3d97a367	0.074042134
9	0x84fb0d78	-5.9022186e-36
10	0xbbf2a29b	-0.007404638
11	0xbc1300df	-0.008972376
12	0x3e79c627	0.24391995
13	0x3e8732ff	0.26406094
14	0x8368a6bc	-6.8370074e-37
15	0x3c9ed081	0.019386532
16	0xbdf5812a	-0.11987527
17	0x3dc5a6dd	0.09650967
18	0x3e89c040	0.26904488
19	0xbd8e8015	-0.069580235
20	0xbbefb0db	-0.007314784
21	0xbb666db2	-0.0035160598
22	0x3da61a23	0.08110454
23	0x802366c7	-3.251112e-39
24	0x80c89491	-1.8420395e-38
25	0x3dcff309	0.10153777
26	0xbe274222	-0.16333821
27	0x3e81895b	0.25300106
28	0x3cf3159c	0.02967339
29	0x3de8d0b9	0.11367936
30	0x3e436576	0.19081673
31	0x3e1cbfb4	0.15307504

blocks.0.conv.weight f4 [32, 32, 3, 3]
0	0xbc4a56a5	-0.012349759
1	0xbb435475	-0.002980498
2	0x3d6024ce	0.0547226
3	0x3a76525b	0.0009396427
4	0x3cd1cc5a	0.025610138
5	0x3d3d96d2	0.04628641
6	0x3ae7dad6	0.001768912
7	0xbc011c4e	-0.0078802835
8	0xbc0e6090	-0.0086900145
9	0xbbdd475d	-0.006752892
10	0x3cbea62f	0.023272602
11	0x3d30dfd2	0.0431822
12	0xbcbdb8bf	-0.023159383
13	0xbce2f704	-0.027705677
14	0x3d86d3d1	0.065833695
15	0xbd4e375f	-0.050345775
16	0x3b986308	0.0046504773
17	0x3d25797d	0.040399063
18	0xbc61b564	-0.013776157
19	0x3b851b7b	0.004062114
20	0x3d7a6505	0.061131496
21	0x3ae414a6	0.0017401173
22	0xbd28dc38	-0.041225642
23	0x3d2b4112	0.041810103
24	0xb9f50432	-0.00046733167
25	0xbd400034	-0.046875194
26	0xbd08a156	-0.033356987
27	0x3ce460d2	0.027878199
28	0x3c4e769a	0.012601519
29	0x3c100af1	0.008791671
30	0xbd5669f8	-0.052347153
31	0x3a33b815	0.00068557385
32	0xbc865f92	-0.016402993
33	0xbcb5357d	-0.022120232
34	0xbd24202c	-0.040069744
35	0xbd1b2c2e	-0.03788393
36	0xbd650c6d	-0.055920053
37	0x3c6d17d0	0.014471009
38	0xbc489d9c	-0.012244608
39	0xbd73cb58	-0.059520096
40	0x3cbc0077	0.02294944
41	0xbc8fccf8	-0.017553791
42	0xbd023b6e	-0.031794958
43	0x3c4d36cb	0.012525271
44	0x3cc4dfc6	0.024032485
45	0x0027c37f	3.651715e-39
46	0x0002a489	2.42695e-40
47	0x0003f6e8	3.6408e-40
48	0x0022bc28	3.189905e-39
49	0x00d4c12c	1.9538422e-38
50	0x00a70e4e	1.534166e-38
51	0x000b260b	1.023838e-39
52	0x00443248	6.262851e-39
53	0x8014c580	-1.90756e-39
54	0x3cb2aaa7	0.021809889
55	0x3ce117b9	0.027477132
56	0xbcb7337d	-0.022363419
57	0xbd89dc78	-0.06731504
58	0x3d3ad1e2	0.045610316
59	0xbc50818c	-0.012726199
60	0xbce08908	-0.027409092
61	0x3cd9d633	0.026591396
62	0xbc5319d2	-0.012884574
63	0xbcffe7eb	-0.031238517
64	0xbafb3fd4	-0.0019168803
65	0xbd13e2f6	-0.03610512
66	0xbd11123a	-0.035417773
67	0x3d1bac48	0.038006097
68	0x3cc72c37	0.024313075
69	0xbcc0095d	-0.023441965
70	0xbcd66365	-0.026170442
71	0xba57942c	-0.00082236785
72	0xbae9f56c	-0.0017849631
73	0xbcba878c	-0.022769712
74	0x3d67d384	0.0565982
75	0xbc1499ba	-0.009069854
76	0x3c7b9423	0.015355143
77	0x3d3fdc1b	0.04684077
78	0xbc317927	-0.010832108
79	0x3ce70144	0.028198846
80	0x3c8974cd	0.016779328
81	0x81657dfa	-4.215104e-38
82	0x8385c368	-7.8619005e-37
83	0x832b7ef1	-5.0398105e-37
84	0x8376f6bd	-7.2576144e-37
85	0x83d47e1c	-1.2489193e-36
86	0x82f52441	-3.6020323e-37
87	0x83f930a3	-1.4646071e-36
88	0x841979c1	-1.804097e-36
89	0x82290396	-1.2417188e-37
90	0x3987cdbe	0.00025902496
91	0xbc6a703b	-0.014308984
92	0x3ce22436	0.027605157
93	0x3c949b1d	0.01814037
94	0x3cad341d	0.021143014
95	0x3c754101	0.014969111
96	0xba077733	-0.00051676034
97	0x3bb3efcb	0.005491232
98	0x3c393ffb	0.011306758
99	0x3c79ef1c	0.015254762
100	0x3d193e8f	0.037413176
101	0x3b6fc2d3	0.003658463
102	0xbd54f03c	-0.051986918
103	0xbcae1863	-0.021251863
104	0xba4e1710	-0.0007861713
105	0xbce620ab	-0.02809175
106	0x3cdd3e1c	0.027007155
107	0xb9e42463	-0.0004351466
108	0xbc13074f	-0.0089739105
109	0x3c21d19c	0.009876635
110	0x3d2bc4dd	0.04193579
111	0xbc842c86	-0.016134512
112	0x3d585c5e	0.052822463
113	0x3ccc269a	0.02492075
114	0xbd1b62d2	-0.03793604
115	0x3d163668	0.03667298
116	0x3c0d6ab3	0.008631396
117	0xb9c29577	-0.00037113923
118	0x3d30d750	0.043174088
119	0x3c3497c1	0.011022509
120	0x3cce6fd8	0.025199816
121	0xbcea16ed	-0.028575385
122	0x3d308d4a	0.043103494
123	0xbd20422b	-0.039125603
124	0xbd4e58ed	-0.050377775
125	0x3bc8beb4	0.006126249
126	0x0045d67f	6.413596e-39
127	0x017bba45	4.623506e-38
128	0x00861387	1.2312962e-38
129	0x01226932	2.9830175e-38
130	0x009034c3	1.3243239e-38
131	0x80d00d5c	-1.9106576e-38
132	0x0022c88c	3.19435e-39
133	0x00e8a8ae	2.1366346e-38
134	0x0045f107	6.423114e-39
135	0xbc84479e	-0.016147431
136	0xbd1104c0	-0.03540492
137	0xbcec86ca	-0.028872866
138	0x3c2cd088	0.010547765
139	0xbce3eb17	-0.02782206
140	0x3d379733	0.04482193
141	0x3cdc4cef	0.026892154
142	0x3d1b578a	0.03792528
143	0xbca32d55	-0.019919077
144	0x3ce52d43	0.027975684
145	0x3c891e43	0.016738063
146	0xbb75d73f	-0.003751233
147	0xbd55e7f0	-0.052223146
148	0x3c457222	0.012051137
149	0x3b88616f	0.0041620056
150	0xbcdeb552	-0.02718607
151	0xbd2e6ddb	-0.042585235
152	0x3abdc5b8	0.001447848
153	0x3ab4b204	0.0013785963
154	0xbcd81b2e	-0.026380148
155	0xbcc533ba	-0.024072517
156	0x3c60fea1	0.013732583
157	0xbd0fb131	-0.035081092
158	0x3a7917ef	0.00095021626
159	0x3c1f6d50	0.009730652
160	0xbbff375d	-0.0077885822
161	0x3d0a2f78	0.033736676
162	0x3cb4e203	0.022080427
163	0x3d09781d	0.033561815
164	0x3da8c3ad	0.08240447
165	0xbd459663	-0.048239123
166	0x3ce72996	0.028218072
167	0x3d45ce8b	0.048292678
168	0x3d3a78c1	0.045525316
169	0xbcd430b3	-0.025902128
170	0x3d191f08	0.03738311
171	0x3bd87ab0	0.0066064224
172	0x3b88b6f7	0.0041722017
173	0x00022511	1.96968e-40
174	0x3cc29ae0	0.02375549
175	0x3d3f0d55	0.046643574
176	0xbac10372	-0.0014725758
177	0xba9da08a	-0.0012025994
178	0x3d1b831d	0.037966836
179	0x3ab7e4c7	0.0014029973
180	0xbce05260	-0.02738303
181	0xbca332bd	-0.019921655
182	0x3c9545e3	0.018221801
183	0xbc5aa51f	-0.013345032
184	0xbbdd72d0	-0.0067580715
185	0xbc5dc869	-0.013536551
186	0x3a522a9a	0.00080172124
187	0x3c302894	0.010751862
188	0x3d0318b6	0.032005988
189	0xbb776f68	-0.0037755612
190	0x3d17e362	0.037082084
191	0x3cec69d2	0.028859053
192	0x3c21be39	0.009872013
193	0xbc7784a0	-0.015107304
194	0x3cdf05d1	0.027224453
195	0x3cd1333e	0.02553713
196	0x3c8126ff	0.015765665
197	0xbc37520b	-0.011188994
198	0x3b952bee	0.004552356
199	0xbc2f9ea0	-0.0107189715
200	0x3c6d7dba	0.014495308
201	0xbd100ab3	-0.035166454
202	0x3bde8a3f	0.0067913826
203	0x3d0232ba	0.031786658
204	0xbd11a299	-0.035555456
205	0x3b83550b	0.0040079406
206	0xbab23ad1	-0.0013597851
207	0x0005b668	5.24613e-40
208	0x8006e648	-6.33622e-40
209	0x8001843b	-1.39271e-40
210	0x00006d7b	3.9274e-41
211	0x0001155c	9.9498e-41
212	0x0004eee5	4.53041e-40
213	0x00056260	4.94468e-40
214	0x8001e60f	-1.74365e-40
215	0x8004edbf	-4.52629e-40
216	0x0004515e	3.96531e-40
217	0x0001c8c4	1.63857e-40
218	0x8021448e	-3.055164e-39
219	0x00bd2d16	1.7373083e-38
220	0x00212b42	3.04609e-39
221	0x003a7e52	5.371774e-39
222	0x003582a7	4.91415e-39
223	0x00301d45	4.418604e-39
224	0x800d282e	-1.208275e-39
225	0x3cf9be6a	0.030486304
226	0x3d4e95d7	0.050435867
227	0xbca63aff	-0.020291803
228	0xbd3a95dc	-0.045553073
229	0xbd21a0f9	-0.039460156
230	0x3cdfe099	0.027328776
231	0xbcc892a8	-0.024483994
232	0xbce4c361	-0.027925195
233	0xbd30bd4a	-0.04314927
234	0xb9cdc68d	-0.0003924858
235	0x3c2cde13	0.0105509935
236	0xbc67d05a	-0.014148796
237	0xbabdb0d7	-0.0014472258
238	0xbc7272f7	-0.014797918
239	0x3c896b10	0.016774684
240	0x3a1195a1	0.00055536075
241	0xbbc160c3	-0.0059014275
242	0x3b8852c4	0.004160257
243	0xbcec906a	-0.028877456
244	0x3bf34c1d	0.007424845
245	0xba6eb3a3	-0.00091057474
246	0xbc31c36c	-0.010849815
247	0xbd23434e	-0.03985911
248	0x3cef443d	0.029207343
249	0xbc8b89ea	-0.017033536
250	0x3c875977	0.016522152
251	0x3cc3af3d	0.023887271
252	0xbc86c780	-0.01645255
253	0xbce6ec62	-0.028188888
254	0xbc63ec0d	-0.013911259
255	0xbd55cd66	-0.052197836

blocks.0.bn.weight f4 [32]
0	0x3f4b2b93	0.79363364
1	0x3f6d3075	0.92652065
2	0x3f659f52	0.8969623
3	0x3f5cf2a5	0.86307746
4	0x3f59f899	0.85144955
5	0x3f638b73	0.8888466
6	0x3f6e6fc9	0.9313932
7	0x3f49ca73	0.7882454
8	0x3f695fe8	0.91161966
9	0x3f6423ea	0.891173
10	0x3f5963b6	0.8491777
11	0x3f6608a5	0.8985694
12	0x3f5dc06c	0.8662174
13	0x3f606aad	0.87662774
14	0x3f6b7107	0.9196934
15	0x3f6e265b	0.93027276
16	0x3f64639d	0.892145
17	0x3f6b50a7	0.9191994
18	0x3f5f6a05	0.8727115
19	0x3f5b5d5c	0.8568933
20	0x3f649273	0.89285964
21	0x3f72510d	0.94654924
22	0x3f648ec3	0.8928034
23	0x3f6567de	0.89611614
24	0x3f58e55e	0.84724987
25	0x3f6af5cb	0.917813
26	0x3f5e12a9	0.86747223
27	0x3f5f4c20	0.8722553
28	0x3f564a6a	0.83707297
29	0x3f622833	0.8834259
30	0x3f5aeb5e	0.8551539
31	0x3f6f6c83	0.9352495

blocks.0.bn.bias f4 [32]
0	0x3c31b660	0.010846704
1	0x3cdac0d9	0.026703285
2	0x3c58fba6	0.013243591
3	0xbca8c53a	-0.020601857
4	0x3b835836	0.0040083183
5	0x3c6e2a0c	0.014536392
6	0x3c54c4d8	0.012986384
7	0x3d0b1696	0.033957087
8	0x3c027e9d	0.007964757
9	0xbcb59ecd	-0.022170449
10	0xbc31aaeb	-0.010843973
11	0x3c9e05b5	0.01928983
12	0xbb78330e	-0.0037872228
13	0x3c3e7d24	0.011626516
14	0x3c481163	0.012211177
15	0x3c4c88a0	0.012483746
16	0x3b2ff0b1	0.0026846344
17	0x3c8e7af3	0.017392611
18	0x3cfd16f7	0.03089474
19	0x3c2848f9	0.010271304
20	0x3cda7b8f	0.026670245
21	0x3ca4a0e8	0.020096257
22	0x3cb27048	0.021782055
23	0x3cbf93e9	0.023385959
24	0x3cb782c8	0.022401229
25	0x3ce38ddd	0.027777607
26	0x3be69d41	0.007037789
27	0xbc3a454d	-0.011369062
28	0x3b080f9b	0.0020761255
29	0x3cd221ae	0.025650825
30	0x3c5bfdbb	0.013427193
31	0x3d8c21e0	0.06842399

blocks.0.bn.running_mean f4 [32]
0	0x3d4116d8	0.047140926
1	0x3f083888	0.5321126
2	0x3b7a3086	0.0038175895
3	0x3e9044d8	0.28177524
4	0x3e8b607d	0.27222052
5	0xbe577f5b	-0.21044676
6	0xbe9e77ee	-0.30950874
7	0xbe8c22e3	-0.27370366
8	0xbe9ef869	-0.31048897
9	0x3e5ab9d0	0.21359944
10	0x3eccc284	0.39992154
11	0x3e3a7ad4	0.18210918
12	0xbe575429	-0.21028198
13	0xbe1e6483	-0.1546803
14	0xbdabd8e5	-0.08390979
15	0xbf0a75b2	-0.5408584
16	0xbee1afca	-0.4407943
17	0xbe9e7295	-0.30946794
18	0xbea6a282	-0.3254586
19	0xbed2f4bb	-0.4120234
20	0x3e3e13d9	0.18562259
21	0xbd5e056d	-0.054204393
22	0x3ea30139	0.3183687
23	0xbebf9b58	-0.37423205
24	0xbeca30aa	-0.39490253
25	0xbe384ea6	-0.17998752
26	0xbefc9d21	-0.4933863
27	0xbc3fab2b	-0.0116985245
28	0xbd307175	-0.04307695
29	0xbe9736e5	-0.2953407
30	0x3e49eb4f	0.1971867
31	0xbeff2a97	-0.4983718

blocks.0.bn.running_var f4 [32]
0	0x3d86d8ff	0.065843575
1	0x3d36961f	0.04457676
2	0x3d810f43	0.06301739
3	0x3d50f9c4	0.051019445
4	0x3d47c562	0.048772223
5	0x3d59747c	0.053089604
6	0x3d838354	0.06421533
7	0x3db5a5b5	0.08869497
8	0x3da97aac	0.08275351
9	0x3d773245	0.060350675
10	0x3d9bbf40	0.076048374
11	0x3d3104c9	0.043217454
12	0x3da1a3ff	0.07892608
13	0x3db5e270	0.0888108
14	0x3d61f343	0.055163633
15	0x3d95816d	0.07300077
16	0x3d7287a2	0.05921138
17	0x3db92d7d	0.09041879
18	0x3d6bf998	0.057611078
19	0x3d8aedfe	0.06783675
20	0x3cec7655	0.028865019
21	0x3d95a857	0.07307499
22	0x3d5e48a5	0.054268498
23	0x3d8a8968	0.067644894
24	0x3d8e5881	0.069504745
25	0x3d8abcd8	0.067743
26	0x3d20cc0f	0.039257105
27	0x3d34c7f1	0.04413599
28	0x3d5f9184	0.054582134
29	0x3d226049	0.039642606
30	0x3d14df3e	0.036345713
31	0x3d2e5476	0.042561017

blocks.1.conv.weight f4 [32, 32, 3, 3]
0	0xbcf3920a	-0.029732723
1	0x3c48e3a6	0.012261307
2	0xbd0677f6	-0.032829247
3	0xbc857e5a	-0.0162956
4	0x3d219496	0.039448343
5	0xbcfe1471	-0.031015607
6	0xbd694292	-0.056948252
7	0xbd589296	-0.05287417
8	0x3cc9f9ba	0.024655212
9	0x3ca995f2	0.020701382
10	0x3ce5a88a	0.028034467
11	0x3d30f717	0.043204393
12	0xbd84b908	-0.064806044
13	0xbd45aaee	-0.048258714
14	0xbd6d6a58	-0.057962745
15	0xbd6b17a1	-0.05739558
16	0xbd54d6aa	-0.051962532
17	0xbab9c609	-0.0014173399
18	0xbd81eb06	-0.06343655
19	0xbd3e2692	-0.046423502
20	0x3d103497	0.035206404
21	0x3c1b398f	0.009474172
22	0x3d6238f7	0.055230107
23	0x3bcc013d	0.0062257336
24	0xbd992810	-0.074783444
25	0x3c99824c	0.018738888
26	0x3ca214e0	0.019785345
27	0xbd7b5b5a	-0.061366417
28	0xbc1c4e27	-0.009540117
29	0xbcee5518	-0.02909331
30	0x3b08e33b	0.0020887393
31	0xbda2de9a	-0.07952614
32	0xbd175469	-0.036945734
33	0xbc992e6e	-0.018698897
34	0xbc9eda69	-0.019391255
35	0xbce26235	-0.02763472
36	0xbce4f67a	-0.02794956
37	0xbd06e28c	-0.032930896
38	0xbceaa122	-0.028641287
39	0x39cc0e7a	0.00038920698
40	0xbd8e1ac8	-0.06938702
41	0x3c0f55db	0.008748497
42	0xbd29a618	-0.041418165
43	0xbd16c143	-0.036805402
44	0xbd05797d	-0.032586563
45	0x3d3ce80a	0.046119727
46	0xbd0f4905	-0.034981746
47	0xbc910f94	-0.017707624
48	0xbc57bbea	-0.013167361
49	0x3d1ccaeb	0.038279455
50	0x3d561d35	0.052273948
51	0xbd5fee16	-0.054670416
52	0x3aaafffb	0.0013046259
53	0x3c4efc12	0.01263334
54	0xbd595dae	-0.053067856
55	0x3ccbce11	0.024878534
56	0xbd013c5f	-0.031551715
57	0xbd6b9219	-0.057512376
58	0x3d30c075	0.04315229
59	0xbcb002ec	-0.021485768
60	0xbaedfb8c	-0.0018156632
61	0xbcdaf37c	-0.02672743
62	0xbcf02c3a	-0.029317964
63	0xbced5a88	-0.028973833
64	0x3d384449	0.044986997
65	0xbd386345	-0.045016546
66	0x3d1143df	0.035465118
67	0x3bc0aad4	0.0058797393
68	0x3d58ddff	0.052946087
69	0xbcaea4a4	-0.021318741
70	0xbc3802d2	-0.011231141
71	0xbd01461f	-0.031561013
72	0x38a57d9a	7.891208e-05
73	0xbcad5bb8	-0.021161899
74	0x3d053e67	0.032530215
75	0x3b09d137	0.0021029243
76	0xbd6f2e3a	-0.058393694
77	0x3c9c1293	0.019051826
78	0xbd1905cc	-0.037359044
79	0xbb4786d9	-0.0030445366
80	0xbc9aff69	-0.018920617
81	0xbc59699f	-0.013269811
82	0xbce0dc40	-0.027448773
83	0x3d184b4b	0.03718118
84	0xbd2b7c37	-0.041866507
85	0xbd1af2a7	-0.037829068
86	0xbcdea7bb	-0.02717959
87	0xbcb7deae	-0.02244505
88	0xbd2dfb18	-0.04247579
89	0xbcdfb71a	-0.02730899
90	0xbc32075a	-0.010866011
91	0x3cc63899	0.02419691
92	0xbc5ca6a1	-0.013467462
93	0x3c7d1870	0.015447721
94	0x3cd456ef	0.02592036
95	0x3cea1779	0.028575646
96	0xbd04bf0b	-0.032408755
97	0xbb9a6c68	-0.00471263
98	0xbd59324d	-0.053026486
99	0xbd830fc6	-0.06399493
100	0xbc28cdac	-0.010302942
101	0xbd50735a	-0.050891258
102	0xbc25aeee	-0.010112507
103	0xbd1e42af	-0.038637813
104	0xbcfe83db	-0.031068733
105	0xbc35d737	-0.0110986745
106	0xbd872e34	-0.066006094
107	0x3a9caacd	0.0011952758
108	0x3c99f142	0.018791799
109	0x3d2f20df	0.042755958
110	0xbce4b6fd	-0.027919287
111	0xbc99c599	-0.01877098
112	0xbce45ad5	-0.027875343
113	0x3d2d8fb9	0.042373393
114	0xbcfd6783	-0.030933147
115	0x3d30d13d	0.043168295
116	0x3cd5b1ea	0.026085813
117	0xbcc1008b	-0.02355983
118	0xbd454221	-0.04815877
119	0x3b2b94f8	0.0026181322
120	0x3c32de9a	0.01091733
121	0x3cc4f267	0.024041368
122	0xbbcb305d	-0.0062008337
123	0xbc6b66d6	-0.01436778
124	0x3ba96896	0.0051699383
125	0x3d425a8c	0.047449633
126	0xbc80cf3f	-0.015723823
127	0xbc46a950	-0.012125328
128	0x3b426b4b	0.0029666002
129	0xbd0eeb99	-0.034892652
130	0x3ca3ac1e	0.019979533
131	0xbd1dde9c	-0.038542375
132	0xbcb143ca	-0.02163877
133	0xbcd03d95	-0.02541999
134	0x3c3f0d75	0.011660923
135	0xbcd16259	-0.025559591
136	0x3cd2bbf8	0.025724396
137	0xbcfa94d1	-0.03058854
138	0x3c815578	0.015787825
139	0x3cb2bd84	0.021818884
140	0x3cec3591	0.028834136
141	0xba4258f7	-0.00074137695
142	0xbd327e47	-0.04357746
143	0x3d7e8fbe	0.062148802
144	0xbd222886	-0.039589427
145	0xbd13ead1	-0.03611261
146	0xbc40770a	-0.011747131
147	0x3d2b6248	0.041841775
148	0x3d142fac	0.036178276
149	0x3c6e306a	0.01453791
150	0xbb819056	-0.0039539738
151	0xbccd042c	-0.025026403
152	0xbd5a61f1	-0.05331606
153	0xbd2a9a64	-0.041651145
154	0xbd54e938	-0.051980227
155	0xbd0ea821	-0.03482831
156	0xbcc1f824	-0.023677893
157	0x3c6e9c5a	0.014563644
158	0xbd837119	-0.06418056
159	0xbb68dbf3	-0.003553149
160	0x3b8eac7e	0.0043540588
161	0xbd4e1bf1	-0.050319616
162	0x3ce1a1bf	0.027542947
163	0xbc8e19a8	-0.017346218
164	0x3d2806de	0.041022174
165	0xbd5600ae	-0.052246742
166	0x3d8b1cdf	0.06792616
167	0x3d31a45d	0.04336964
168	0x3c711d93	0.014716524
169	0xbcc8b0d2	-0.024498377
170	0xbcdc61c8	-0.026902094
171	0xbd008cfb	-0.03138445
172	0x3b614ed8	0.003437927
173	0x3c825a3c	0.015912168
174	0xbbb36845	-0.0054750764
175	0x3d4d92dd	0.050188888
176	0x3d64f272	0.055895276
177	0xbb8f3eef	-0.004371516
178	0x3d329b0e	0.043604903
179	0x3cca8b20	0.024724543
180	0x3b8c125a	0.0042746486
181	0xbcc9deca	-0.024642367
182	0x3d1866ef	0.03720754
183	0x3b3a863d	0.002846136
184	0x3d34541f	0.044025537
185	0xbd0f2723	-0.034949433
186	0xbca7384a	-0.020412583
187	0xbd1beefc	-0.03806971
188	0xbb8b8c98	-0.0042587034
189	0xbc067d22	-0.008208545
190	0xbd55705f	-0.05210912
191	0x3c7af674	0.015317548
192	0xbcfea317	-0.031083627
193	0x3b537686	0.003226669
194	0x3d203aa2	0.039118417
195	0x3c575423	0.013142618
196	0xbd23bbb7	-0.03997394
197	0xbd63256c	-0.05545561
198	0xbd5b0f07	-0.053481128
199	0x3d1ab296	0.03776797
200	0xbc014e0d	-0.007892144
201	0xbd3db9a9	-0.046319637
202	0x3d372df8	0.044721574
203	0xbd1a04e8	-0.037602335
204	0xbc2ddea6	-0.010612166
205	0x3c96f7d2	0.018428717
206	0xbd5da73a	-0.054114558
207	0xbd45bd0c	-0.048275992
208	0x3ce3cb4e	0.027806904
209	0xbd67b890	-0.056572497
210	0xbd6c8456	-0.057743393
211	0xbb8101d0	-0.0039369836
212	0x3d084bc9	0.0332754
213	0x3cd9a891	0.026569637
214	0x3d1a7efd	0.03771876
215	0x393b581d	0.00017866534
216	0xbc773bb5	-0.015089919
217	0x39e988ea	0.00044543232
218	0xbae44577	-0.0017415722
219	0x3c3d474c	0.011552643
220	0xbc6a6e99	-0.014308595
221	0xbc76e20d	-0.015068543
222	0x3c920d2b	0.017828545
223	0xbcbe6695	-0.023242274
224	0x3bbe6d42	0.0058113644
225	0xbc51b407	-0.0127992695
226	0x3d20924b	0.039202016
227	0xbcb7cc03	-0.022436148
228	0xbbe198ce	-0.006884671
229	0x3d1b9de4	0.037992373
230	0x3a3e93cf	0.000726995
231	0xbcd81933	-0.026379203
232	0x3cc862b0	0.02446112
233	0x3c9ff158	0.019524261
234	0x39278910	0.00015977421
235	0x3baa0ede	0.0051897606
236	0x3cc96f57	0.024589224
237	0x3d32f463	0.043690097
238	0x3cf0f003	0.029411322
239	0x3d345d7b	0.044034462
240	0xbd0fb605	-0.035085697
241	0x3ceed555	0.029154459
242	0x3b871281	0.004122079
243	0xbccb036b	-0.024781903
244	0xbb841546	-0.0040308563
245	0x3bd7851d	0.0065771476
246	0xbd484022	-0.048889287
247	0xbd778671	-0.060430948
248	0xbc2c543d	-0.010518131
249	0xbc21612e	-0.00984983
250	0xbd25d102	-0.04048253
251	0xbd2cf1f2	-0.042222925
252	0x3cf8fcdc	0.03039401
253	0x3d3158ed	0.043297697
254	0xbcb8370e	-0.02248719
255	0x3b4bfcf6	0.0031126118

blocks.1.bn.weight f4 [32]
0	0x3f77db82	0.9681932
1	0x3f67010a	0.9023596
2	0x3f6b7162	0.91969883
3	0x3f7a6d55	0.9782308
4	0x3f7bee4a	0.98410475
5	0x3f6c006e	0.92188156
6	0x3f7292e5	0.94755393
7	0x3f72aa44	0.94791055
8	0x3f73f738	0.952991
9	0x3f68dee1	0.90965086
10	0x3f6cab4d	0.92448884
11	0x3f721d5f	0.94576067
12	0x3f806910	1.0032063
13	0x3f754df8	0.95822096
14	0x3f707177	0.93923134
15	0x3f76d208	0.9641423
16	0x3f7b16f5	0.98081905
17	0x3f718cd4	0.9435551
18	0x3f6cced6	0.92503107
19	0x3f79dce8	0.976027
20	0x3f7c2338	0.9849124
21	0x3f72926f	0.9475469
22	0x3f6de174	0.9292214
23	0x3f6c4a03	0.9230043
24	0x3f691aa6	0.9105629
25	0x3f69d1b8	0.9133563
26	0x3f7c2272	0.9849006
27	0x3f76d258	0.9641471
28	0x3f70f716	0.94127023
29	0x3f672716	0.90294015
30	0x3f72518c	0.9465568
31	0x3f7c1abe	0.98478305

blocks.1.bn.bias f4 [32]
0	0x3ca66321	0.02031094
1	0xbd04f7ea	-0.03246299
2	0xbbee3b02	-0.007270218
3	0x3bf5f60a	0.007506137
4	0x3c37122f	0.011173769
5	0xbcc9352d	-0.024561489
6	0x3c22cb5d	0.009936181
7	0x3aa86b14	0.0012849295
8	0x3d01e8f4	0.031716302
9	0x3ca3c4ed	0.019991362
10	0x3d1d4712	0.038397856
11	0x3cbbb09f	0.022911368
12	0x3ced15ad	0.028941
13	0x3d1cf8cc	0.03832321
14	0x3caf6090	0.02140835
15	0x3cc56600	0.024096489
16	0x3d17ed61	0.037091617
17	0x3c958b1b	0.018254807
18	0xbc07a2e9	-0.008278587
19	0x3cd70074	0.026245333
20	0x3d459429	0.048237
21	0x3cd75511	0.02628568
22	0xbc34bc81	-0.011031271
23	0x3c4835d7	0.012219868
24	0xbba5c062	-0.005058334
25	0x3aea94d7	0.0017897141
26	0x3cebe494	0.028795518
27	0x3c58eb75	0.013239731
28	0x3d55fe1d	0.052244294
29	0x3c8160c0	0.015793204
30	0x3b0da32b	0.0021612148
31	0x3d2595b9	0.04042599

blocks.1.bn.running_mean f4 [32]
0	0xbf3549ca	-0.7081572
1	0x3eb2276c	0.34795702
2	0xbe1ead4f	-0.154958
3	0xbe12e6e8	-0.14345896
4	0xbe96f71e	-0.2948541
5	0x3cb0c820	0.021579802
6	0xbe1762ac	-0.14783734
7	0x3e0a6f87	0.13519107
8	0xbea066fb	-0.31328568
9	0xbe4c5259	-0.19953288
10	0xbe7a9b3d	-0.24473281
11	0xbe233ab7	-0.15940367
12	0x3d923a65	0.07140044
13	0xbef39e36	-0.47581643
14	0x3d1b319b	0.037889104
15	0x3eeb559b	0.4596375
16	0xbf237b53	-0.6386005
17	0xbe9e8958	-0.3096416
18	0xbd292c04	-0.041301742
19	0xbdf5448b	-0.11975964
20	0xbedadedb	-0.4274815
21	0xbf2f05e8	-0.6836839
22	0xbf3a4a17	-0.727693
23	0xba800213	-0.0009766243
24	0xbf1f13b9	-0.6213947
25	0xbe9cf61a	-0.3065651
26	0x3e280efb	0.16411965
27	0xbe1671e9	-0.14691891
28	0x3d10157f	0.03517675
29	0xbf28cd45	-0.65938216
30	0xbd912a7b	-0.07088181
31	0xbf04949a	-0.5178925

blocks.1.bn.running_var f4 [32]
0	0x3f20ffa5	0.6289008
1	0x3eb2e71d	0.3494195
2	0x3e99eb5f	0.30062386
3	0x3ece8d4a	0.4034217
4	0x3eb96410	0.36209154
5	0x3e8e7d27	0.2782986
6	0x3efb1ee5	0.49047008
7	0x3e84523f	0.25844
8	0x3f10070b	0.56260747
9	0x3f078822	0.529421
10	0x3f0046fe	0.50108325
11	0x3f411104	0.7541659
12	0x3f0d19e3	0.55117625
13	0x3eb8cfad	0.36095944
14	0x3f106c72	0.56415474
15	0x3ef8c5e0	0.48588467
16	0x3f59ace3	0.8502943
17	0x3f159506	0.58430517
18	0x3f0a5d68	0.54048777
19	0x3ef3072d	0.47466412
20	0x3e9cf238	0.30653548
21	0x3ed6502a	0.41858035
22	0x3eafa937	0.34308788
23	0x3ee1377d	0.43987647
24	0x3f1a35e2	0.6023847
25	0x3ea8ebd7	0.32992432
26	0x3ea71dc9	0.32639912
27	0x3ee7540b	0.45181307
28	0x3ec80ad4	0.3907076
29	0x3edd64ad	0.43240872
30	0x3ee5a09f	0.44849107
31	0x3ed1cbd5	0.40975824

blocks.2.conv.weight f4 [32, 32, 3, 3]
0	0xbca25120	-0.019814074
1	0x3c9ae44e	0.018907692
2	0xbcb4ecb3	-0.022085523
3	0x3cd88f2d	0.026435459
4	0x3d9a5e9a	0.07537575
5	0xbcaba479	-0.02095245
6	0xbd32da3f	-0.043665167
7	0x3d768f87	0.060195472
8	0xbd3ff95c	-0.046868667
9	0x3c96511d	0.018349225
10	0xbc2f68e5	-0.010706161
11	0x3d2c39a6	0.042047165
12	0x3c9edc83	0.019392258
13	0xbce264c0	-0.027635932
14	0xbd0cb6eb	-0.03435413
15	0x3bdc1ac0	0.006717056
16	0xbd054fef	-0.032546934
17	0xbdb9f143	-0.0907922
18	0x3d74c92d	0.05976217
19	0xbd456301	-0.04819012
20	0x3d05fe21	0.03271306
21	0xbd785a77	-0.06063315
22	0x3d370a52	0.044687577
23	0xbd0a4035	-0.03375264
24	0xbd620690	-0.05518204
25	0xbd8f6a2f	-0.07002675
26	0x3c1043b6	0.008805206
27	0x3d011969	0.031518374
28	0xbd12e6e8	-0.03586474
29	0xbd9d5ff1	-0.07684315
30	0xbcd2b985	-0.025723228
31	0x3b8383c1	0.004013509
32	0x3b883a5d	0.004157348
33	0xbcd34c5f	-0.025793253
34	0x3d202431	0.039097015
35	0xbba14871	-0.0049219658
36	0xbca0fa20	-0.019650519
37	0xbd2ab5e4	-0.04167737
38	0xbccc649c	-0.024950318
39	0x3d708cb8	0.05872795
40	0xbd73d5f3	-0.05953021
41	0xbbadbe14	-0.0053022
42	0x3d023503	0.031788837
43	0x3d010ca6	0.031506203
44	0x3b8f7269	0.0043776524
45	0x3bca35dc	0.0061709713
46	0xbd434278	-0.04767081
47	0xbcf2bb39	-0.02963029
48	0x3d124761	0.035712603
49	0xbc4cfe39	-0.012511783
50	0xba1c193f	-0.00059546897
51	0xbd2168e1	-0.03940666
52	0xbd23c302	-0.039980896
53	0x3c47caa6	0.012194311
54	0x3caa1a8d	0.020764614
55	0x3d091c00	0.03347397
56	0xbc244c4a	-0.010027954
57	0x3ca36307	0.01994468
58	0xbb6d7d3a	-0.003623797
59	0xbd36e9e9	-0.044656668
60	0x3ca40962	0.020024005
61	0xbd280756	-0.04102262
62	0xbd4113b2	-0.047137924
63	0xbcd949a7	-0.026524378
64	0xbc42770e	-0.011869205
65	0x3c4727f2	0.01215552
66	0x3d333a82	0.04375697
67	0xbcd6e869	-0.026233869
68	0xbd80df8b	-0.062926374
69	0xbb99e6f9	-0.0046967235
70	0xbc9f20e8	-0.01942487
71	0xbb7d8203	-0.003868223
72	0xbc93b5e9	-0.018031077
73	0xbd1f1c59	-0.038845394
74	0xbd2852fe	-0.041094773
75	0xbce9d269	-0.028542714
76	0xbcc1c5fd	-0.023653978
77	0xbda46f0d	-0.08028994
78	0xbd82303d	-0.06356857
79	0x3bda4386	0.0066608815
80	0x3ca0a6f6	0.019610863
81	0xbd0e435f	-0.03473222
82	0x3bc46a80	0.005994141
83	0xbc82d6ee	-0.015971627
84	0x3c8d91e3	0.017281478
85	0xbcc4e5c0	-0.024035335
86	0x3d27c9b4	0.040963843
87	0x3d1ba2d2	0.037997074
88	0x3d05e153	0.03268559
89	0xbd4a6ae5	-0.04941835
90	0x3cfda138	0.030960664
91	0xbd1eba96	-0.03875216
92	0xbd121e16	-0.035673223
93	0xbd2be987	-0.041970756
94	0xbcb3cf70	-0.0219495
95	0xbcda6933	-0.026661491
96	0xbd028f37	-0.03187486
97	0xbd86de8f	-0.065854184
98	0xbd8cb1bc	-0.06869838
99	0x3d18b9ed	0.037286688
100	0xbc849004	-0.016181953
101	0xbc0296d4	-0.007970531
102	0xbbf47e23	-0.0074613257
103	0xbc8dd6dc	-0.017314367
104	0x3cbde23d	0.023179168
105	0xbd3e898e	-0.0465179
106	0xbd0eb351	-0.03483898
107	0x3cd671c7	0.0261773
108	0xbd0f4925	-0.034981865
109	0xbd0b3e85	-0.03399517
110	0x3cbb3d1b	0.022856286
111	0x3d20a663	0.03922118
112	0xbd5edf2a	-0.054412045
113	0x3c839f81	0.016067268
114	0xbd79e6bb	-0.061011057
115	0xbd47a4cb	-0.048741143
116	0x3d96bed0	0.07360613
117	0x3afb20ee	0.0019159594
118	0xbd0271cd	-0.03184681
119	0xbce8f713	-0.028438127
120	0x3d75fcea	0.06005565
121	0x3d49125b	0.04908977
122	0xbdaf297b	-0.08552834
123	0xbceaddf9	-0.028670298
124	0xbd44e31a	-0.048068143
125	0xbd057667	-0.03258362
126	0x3d357365	0.044299502
127	0x3b59724c	0.0033179699
128	0x3d584f6c	0.052810118
129	0x3d0a33e4	0.033740893
130	0x3bf4be95	0.007469008
131	0x3d830b09	0.06398589
132	0xbd64a0a4	-0.05581726
133	0xbbda73df	-0.006666645
134	0x3d6e61c4	0.058198705
135	0xbc0dea5d	-0.008661834
136	0xbd1a9b98	-0.037746042
137	0x3d5bbdd1	0.05364782
138	0x3a24c020	0.00062847324
139	0xbcde79a8	-0.02715762
140	0x3cc9518f	0.024575023
141	0xbb3d2e05	-0.002886654
142	0xb9b09a82	-0.00033684453
143	0x3d342676	0.04398199
144	0xbda92b13	-0.08260169
145	0xbccc0183	-0.024903065
146	0xbc2cf0ed	-0.010555488
147	0x3c7ba791	0.015359775
148	0x3d93ae38	0.07210964
149	0x3d73d0ac	0.059525177
150	0x3cb98313	0.022645509
151	0x3c31e9b8	0.010858946
152	0xba445eff	-0.0007490962
153	0xbb25e259	-0.0025311916
154	0x3cf01c6d	0.02931043
155	0x3d40564b	0.046957295
156	0xbd5c6b13	-0.05381305
157	0x3cc63a9f	0.024197875
158	0x3d2951a5	0.041337628
159	0xbd37dc87	-0.044888046
160	0x3d7afbc7	0.06127527
161	0xbdbb3e19	-0.091427036
162	0xbd7fb3fa	-0.0624275
163	0xbbfea503	-0.007771136
164	0xbdae6b66	-0.085165784
165	0xbc6c67ae	-0.014429016
166	0xbcec963a	-0.028880227
167	0xbd95c289	-0.07312495
168	0xbdd9518b	-0.10611256
169	0xbd4f43f6	-0.050601922
170	0x3c981c7b	0.018568268
171	0xbd53b5cf	-0.051687058
172	0xbd106553	-0.03525288
173	0x3d09e9ae	0.03367012
174	0xbc3c80d8	-0.011505328
175	0x3cd8fe12	0.026488338
176	0xbcc028c0	-0.023456931
177	0xbd612ffe	-0.05497741
178	0xbdc221a6	-0.09479074
179	0xbc9fbf08	-0.01950027
180	0xbd1dacfb	-0.038495045
181	0x3c15396f	0.0091079315
182	0xbc5e0830	-0.013551757
183	0x3cde6ded	0.027152026
184	0x3cb347ed	0.021884883
185	0xbd375018	-0.044754118
186	0xbd6aa9a7	-0.0572907
187	0xbc6542ee	-0.013993008
188	0xbd52c491	-0.05145699
189	0x3ba4b132	0.005026006
190	0x3d8654cd	0.06559143
191	0xbcfaa914	-0.0305982
192	0xbd83c3ba	-0.06433816
193	0x3d1fbbe5	0.03899755
194	0xbbc9160e	-0.0061366623
195	0x3cceaf6e	0.025230136
196	0xbc83ab11	-0.016072782
197	0x3cb7a6e2	0.022418443
198	0xbd0ffc67	-0.03515282
199	0xbcc79452	-0.024362717
200	0xbd14ea0a	-0.03635601
201	0xbc541a7c	-0.0129457675
202	0xbda3a083	-0.079895996
203	0x3d55a909	0.052163158
204	0xbb36cdc7	-0.002789365
205	0x3c973201	0.01845646
206	0x3ca6dade	0.020368036
207	0xbce76c74	-0.028249957
208	0x3cc24213	0.023713147
209	0xbca765d1	-0.020434292
210	0x3d1bc0ec	0.03802578
211	0xbc7f2691	-0.01557316
212	0xbd46aa12	-0.048502035
213	0x3d462afd	0.04838084
214	0x3beefd2d	0.0072933645
215	0xbcb7bcef	-0.022428958
216	0x3c283405	0.010266309
217	0x3cb0a8cd	0.021564865
218	0x3c0a2ba4	0.008433256
219	0xbd8f44c3	-0.06995537
220	0xbd371f3e	-0.04470753
221	0xbc8329e6	-0.01601119
222	0xbcbee1b0	-0.023300976
223	0xbd2ecf69	-0.04267827
224	0xbd7f0294	-0.062258318
225	0x3b979d70	0.0046269223
226	0xbd222f72	-0.03959603
227	0xbd497896	-0.049187265
228	0x3aaa5302	0.0012994709
229	0x3cbfc8c9	0.023411172
230	0x3a2b883e	0.0006543434
231	0xbd22764d	-0.0396636
232	0xbcc1889c	-0.02362471
233	0x3ca2475a	0.019809414
234	0x3cbe5ef9	0.023238646
235	0x3c823c2d	0.015897835
236	0x3da357a2	0.07975699
237	0xbcf0e032	-0.02940378
238	0xbda4cf77	-0.08047383
239	0x3c7e84a6	0.015534556
240	0xbd9612c0	-0.07327795
241	0x3d0bf374	0.034167722
242	0xbd0a4ffb	-0.03376768
243	0x3cbe1287	0.023202194
244	0x39f3dfb8	0.00046515255
245	0xbd7a9153	-0.06117375
246	0xbc0a44fd	-0.0084393
247	0xbcd8dbf7	-0.026472075
248	0x3cec695b	0.028858831
249	0xbd270ded	-0.040784765
250	0xbdaae7ab	-0.083449684
251	0xbd4cc2a1	-0.0499903
252	0xbb48ae00	-0.003062129
253	0xbc326bd3	-0.010889965
254	0x3d1b3ebb	0.03790162
255	0x3d08d695	0.033407766

blocks.2.bn.weight f4 [32]
0	0x3fab71b1	1.3394071
1	0x3f8bbb68	1.0916567
2	0x3fc96364	1.5733457
3	0x3fc7412b	1.5566763
4	0x3fb55bd7	1.4168652
5	0x3fa681dd	1.3008381
6	0x3fb4ff2a	1.414037
7	0x3fb97923	1.4490093
8	0x3fb4d5df	1.4127768
9	0x3f74e7e1	0.9566632
10	0x3fb65ad2	1.4246466
11	0x3fcfafd2	1.6225531
12	0x3f9ef770	1.2419262
13	0x3fb451b8	1.4087439
14	0x3f81312e	1.0093133
15	0x3f897e94	1.0741754
16	0x3fb5efb8	1.4213781
17	0x3fa9a062	1.325207
18	0x3f8eaf60	1.114727
19	0x3fb8e4f6	1.4444873
20	0x3f8a27b7	1.079337
21	0x3faf0706	1.3674018
22	0x3fab885f	1.3400992
23	0x3f7a9545	0.9788402
24	0x3f8d75d5	1.1051584
25	0x3f69e62f	0.9136686
26	0x3fb23928	1.3923693
27	0x3fcc40ad	1.5957237
28	0x3fb43c7d	1.408096
29	0x3fa341b0	1.2754421
30	0x3f7a3150	0.97731495
31	0x3f81ba5d	1.0134999

blocks.2.bn.bias f4 [32]
0	0x3ee0143a	0.43765432
1	0x3df706ee	0.120618686
2	0x3f17b04e	0.59253395
3	0x3f0f5ddd	0.560026
4	0x3f1089f3	0.56460494
5	0x3ea697b2	0.3253761
6	0x3eefe663	0.4685546
7	0x3f1ff6d9	0.62486035
8	0x3ef1e951	0.4724832
9	0x3d36dd90	0.044644892
10	0x3ee3928d	0.44447747
11	0x3f199c88	0.6000447
12	0x3e8ec527	0.2788479
13	0x3ef3d47b	0.47623047
14	0x3dc45ad3	0.09587636
15	0x3deb6b0f	0.11495029
16	0x3ef05bb3	0.4694496
17	0x3eb64af1	0.3560405
18	0x3e9494af	0.29019687
19	0x3f0937ff	0.5360107
20	0x3ddd2ae8	0.10799199
21	0x3ed33f94	0.41259444
22	0x3edc71ab	0.43055472
23	0x3dc45a0c	0.095874876
24	0x3e05f202	0.130806
25	0x3d9b0e20	0.075710535
26	0x3f062a61	0.52408415
27	0x3f24464d	0.6416977
28	0x3f0224ba	0.5083729
29	0x3e99f0e8	0.3006661
30	0x3d6a5830	0.05721301
31	0x3dc48693	0.095959805

blocks.2.bn.running_mean f4 [32]
0	0xbf457952	-0.77138245
1	0xbd15f5a6	-0.03661122
2	0xbf4b61fd	-0.79446393
3	0xbecbc00c	-0.39794958
4	0xbe7d85ec	-0.24758118
5	0xbf1da53a	-0.6158024
6	0xbeec5f32	-0.46166378
7	0xbf6163f1	-0.88043123
8	0xbf4b5101	-0.7942048
9	0x3f2a758f	0.6658563
10	0xbf80117b	-1.0005335
11	0xbf8f79bc	-1.1209025
12	0x3da09610	0.07841122
13	0xbef6e220	-0.48219395
14	0xbde00a6d	-0.109394886
15	0xbd33e488	-0.043919116
16	0xbf4fa930	-0.81117535
17	0xbf9c6cd0	-1.2220707
18	0xbeae3161	-0.34022048
19	0xbf11e83c	-0.56994987
20	0xbe53c1bc	-0.20679373
21	0x3c8ef85d	0.017452413
22	0xbeb5251f	-0.35379884
23	0x3f205454	0.62628675
24	0xbf370021	-0.7148457
25	0x3f22a9de	0.63540447
26	0xbf471edb	-0.77781457
27	0xbf14a9d4	-0.5807164
28	0xbdc2e390	-0.0951606
29	0xbf583248	-0.84451723
30	0x3f74fd32	0.95698845
31	0x3f376c03	0.7164919

blocks.2.bn.running_var f4 [32]
0	0x3f37006d	0.71485025
1	0x3e860c31	0.26181176
2	0x3f9f609a	1.2451355
3	0x3f847769	1.0348941
4	0x3f2e3996	0.6805662
5	0x3f0b2789	0.543572
6	0x3f448014	0.7675793
7	0x3f4dc777	0.80382484
8	0x3f22f9f4	0.6366265
9	0x3e9a480f	0.301331
10	0x3f714770	0.9424963
11	0x3f4654aa	0.7747294
12	0x3efbb4db	0.4916142
13	0x3f230273	0.6367561
14	0x3e88ed62	0.2674361
15	0x3eb16c1d	0.34652796
16	0x3f898c94	1.0746026
17	0x3f8220ea	1.0166295
18	0x3f1f0c6f	0.6212835
19	0x3f2be7a4	0.6715033
20	0x3e936642	0.28788954
21	0x3f4123f7	0.75445503
22	0x3f2fd879	0.68689686
23	0x3e77a44d	0.2418377
24	0x3f2149c2	0.6300317
25	0x3e623012	0.2208865
26	0x3f0e22f0	0.5552206
27	0x3f3be251	0.73392206
28	0x3f733081	0.94995886
29	0x3f33122d	0.6994961
30	0x3ebb7b2c	0.3661741
31	0x3e9ee793	0.31036052

head_p.conv.conv.weight f4 [2, 32, 1, 1]
0	0x3e640c5d	0.22270341
1	0xbe484f09	-0.195614
2	0x3f2400f2	0.6406394
3	0x3f26b33f	0.6511726
4	0x3ec78f7f	0.38976666
5	0x3e394d57	0.18095909
6	0x3efd75d4	0.49503958
7	0x3ed65467	0.4186127
8	0x3ee67c44	0.45016682
9	0xbe8cb097	-0.27478477
10	0x3f172fcc	0.5905731
11	0x3f3a8148	0.7285352
12	0x3e93cca3	0.28867063
13	0x3eefebf9	0.4685972
14	0xbe0a09c6	-0.13480291
15	0xbcc6fbc4	-0.024289973
16	0x3f10f438	0.5662265
17	0x3efd0e39	0.49424914
18	0x3e8ff141	0.2811375
19	0x3ef537d3	0.47894153
20	0xbcf7ba85	-0.030240307
21	0x3ef3224d	0.47487107
22	0x3e7ac254	0.24488193
23	0xbe1b809b	-0.15185778
24	0x3cc6d9cc	0.024273776
25	0xbe3d251f	-0.18471192
26	0x3f004355	0.5010274
27	0x3f1875a6	0.5955452
28	0x3f0b09ec	0.54312015
29	0x3e159025	0.14605768
30	0xbe769e95	-0.24083932
31	0xbe860fcc	-0.26183927
32	0x3eb30476	0.3496434
33	0x3e626471	0.22108628
34	0xbeb2f774	-0.34954417
35	0xbea703ac	-0.3261999
36	0x3ec24fb1	0.37951425
37	0x3ea34f60	0.31896496
38	0xbe9aca19	-0.30232313
39	0x3e90c802	0.28277594
40	0xbe966f3f	-0.2938175
41	0xbdbb442c	-0.09143862
42	0x3df9e24d	0.122013666
43	0xbdf47a1c	-0.11937353
44	0xbeb1930c	-0.346825
45	0xbe6c2c34	-0.23063737
46	0x3e072066	0.13195953
47	0x3e4cc66e	0.1999757
48	0xbec004a6	-0.37503546
49	0xbe5ac2ae	-0.21363327
50	0xbe61ed61	-0.22063209
51	0x3ea5ef07	0.32408926
52	0x3e623e3c	0.22094053
53	0xbe829758	-0.2550609
54	0x3e88ce41	0.2671986
55	0xbe86e818	-0.26348948
56	0x3eaefef5	0.34178892
57	0xbe3364a1	-0.17518856
58	0xbc538c57	-0.012911878
59	0xbeacda5d	-0.33760348
60	0x3e44c265	0.1921478
61	0x3ea01b9f	0.31271073
62	0xbe3fa1f8	-0.1871413
63	0xbe4e8ec3	-0.20171647

head_p.conv.conv.bias f4 [2]
0	0x3f53eb8d	0.82781297
1	0x3e3e959c	0.18611759

head_p.fc.weight f4 [66, 132]
0	0xbb0ee5f6	-0.0021804548
1	0xbe1f2bfc	-0.15544122
2	0x3b1f6f15	0.0024327685
3	0xba0b126a	-0.0005305173
4	0xbad55b7e	-0.0016277877
5	0xbad0c3d4	-0.0015927502
6	0xbe317ed4	-0.17333537
7	0xbe9c8138	-0.30567336
8	0x3c80079a	0.015628625
9	0x3a5fe974	0.0008541562
10	0x3d80d457	0.062905006
11	0xbe7a4591	-0.244406
12	0xbe906e8b	-0.28209338
13	0xbe9b477b	-0.30327973
14	0xbe92091b	-0.28522572
15	0xbe487ba3	-0.19578414
16	0xbe8cb3f5	-0.27481046
17	0xbe950688	-0.29106545
18	0xbe89cbe5	-0.26913372
19	0xbe5c112f	-0.2149093
20	0x3a30b4dd	0.0006740818
21	0xbe6d86e9	-0.23195995
22	0x3d9e6900	0.07734871
23	0xbe486412	-0.19569424
24	0xbe2986fe	-0.16555402
25	0xbe92b102	-0.2865067
26	0xb84b6a6b	-4.849808e-05
27	0x3a616cc8	0.00085992785
28	0xbea7b963	-0.32758626
29	0xbe6c2011	-0.23059107
30	0xbe9a6413	-0.30154476
31	0xbe779c0b	-0.2418062
32	0x3a614069	0.00085926667
33	0xbea22430	-0.31668234
34	0x3dc3b549	0.09556062
35	0xbe8d4622	-0.2759257
36	0xbe463a45	-0.19358166
37	0xbe3db42f	-0.18525766
38	0xb84b5ec0	-4.8487214e-05
39	0x3a616cec	0.00085992995
40	0xbe39cce4	-0.18144566
41	0xbe341517	-0.1758617
42	0xbe44005d	-0.19140764
43	0xbe9a4a2c	-0.30134714
44	0x395b6338	0.0002092243
45	0xbe4b3919	-0.19846
46	0x3dae1579	0.08500189
47	0xbe855ec5	-0.26048866
48	0xbe251136	-0.16119847
49	0xbe75231b	-0.23939173
50	0x392bc530	0.00016381289
51	0x3a89dabe	0.0010517461
52	0xbe758dc3	-0.23979859
53	0xbcf76974	-0.030201651
54	0xbe63372a	-0.22189012
55	0xbe560256	-0.20899329
56	0xb6d73e8d	-6.414781e-06
57	0xbe9e4d17	-0.3091819
58	0x3d934fd6	0.07192962
59	0xbe8398cf	-0.2570252
60	0xbdc1b939	-0.094591565
61	0xbe6423df	-0.22279309
62	0xbe16301c	-0.1466679
63	0xbe37d4bb	-0.17952244
64	0xbe5619e6	-0.20908317
65	0xbe9a2642	-0.30107313
66	0xba984e16	-0.0011619951
67	0xbe5c952a	-0.21541277
68	0xbe1613f0	-0.14656043
69	0xbc3582e2	-0.011078568
70	0xb8d45d71	-0.000101263526
71	0x3b9383e6	0.0045018075
72	0xbbd3f52d	-0.006468436
73	0x3d25acc4	0.040447965
74	0x3b138685	0.00225106
75	0x3d604a27	0.054758217
76	0x3d909bfc	0.07061002
77	0x3d648398	0.05578956
78	0xbe712ed6	-0.23553023
79	0x3d84c432	0.06482734
80	0xbe8356f6	-0.25652283
81	0x3c5ba031	0.013404892
82	0x3df3534b	0.11881121
83	0x3d991cd7	0.07476204
84	0xbea6a3eb	-0.32546934
85	0x3dc57285	0.096409835
86	0xbe499acb	-0.19687955
87	0x3dadf494	0.08493915
88	0x3d7e7a21	0.06212819
89	0x3d51f95d	0.051263202
90	0xbe32cc98	-0.17460859
91	0x3db5ecfd	0.088830926
92	0xbb054b9e	-0.002033926
93	0x3b398164	0.0028305883
94	0x3ddce5ba	0.10786004
95	0x3d76025c	0.060060844
96	0xbe391726	-0.18075237
97	0x3d9fc370	0.078009486
98	0xbe1c2045	-0.15246685
99	0x3dd86cd3	0.105676316
100	0x3d7ea5da	0.062169887
101	0x3da4ae63	0.08041074
102	0xbe6a358d	-0.2287199
103	0x3da75d0f	0.081720464
104	0xbb054bac	-0.0020339293
105	0x3b39815a	0.002830586
106	0x3dd090cf	0.1018387
107	0x3d7136fd	0.05889033
108	0xbe437703	-0.19088368
109	0x3deead83	0.116541885
110	0xbe15d4f4	-0.14632016
111	0x3dfa6444	0.122261554
112	0x3dab688e	0.083695516
113	0x3d9d455e	0.07679246
114	0xbe921aa0	-0.28535938
115	0x3dfc4e93	0.12319674
116	0xbb27b543	-0.0025590218
117	0x3bacb5f9	0.0052707163
118	0x3db11049	0.08645684
119	0x3d06fa93	0.03295381
120	0xbe7d4a88	-0.24735463
121	0x3de26a8e	0.1105548
122	0xbe84b7bf	-0.25921437
123	0x3dd41cbc	0.10357043
124	0x3d1998b3	0.03749914
125	0x3d56560c	0.052328154
126	0xbe30dbf7	-0.1727141
127	0x3dbe51a4	0.092929155
128	0x3bccd67d	0.006251155
129	0xbe5b2559	-0.21400966
130	0x3d97f832	0.074203864
131	0x3d053e5c	0.032530174
132	0x3b553e78	0.0032538455
133	0x3c7cbd3b	0.015425975
134	0xbcb99a68	-0.022656634
135	0xbbd2dd35	-0.0064350613
136	0xbba50f17	-0.0050371992
137	0x3bb6a171	0.0055734445
138	0x3ca41a92	0.020032201
139	0x3dabfe42	0.08398105
140	0x3d426079	0.047455285
141	0xbaf0a529	-0.0018359768
142	0xbdad7ac5	-0.08470682
143	0x3da68b2c	0.08132014
144	0x3d0edbe1	0.03487766
145	0x3cba552a	0.022745688
146	0x3d4ca11d	0.049958337
147	0x3b38f7cf	0.0028223877
148	0x3d4f9a85	0.05068447
149	0x3cbe9e0d	0.023268724
150	0xbc1f725c	-0.009731855
151	0x3d0f3c02	0.034969337
152	0xbc0b67ec	-0.008508664
153	0xbd5af742	-0.05345846
154	0x3d4e97c4	0.050437704
155	0x3ce8b7ad	0.028407896
156	0x3da88e37	0.0823025
157	0x3c9c5844	0.019085057
158	0x3c58b9f4	0.013227928
159	0xbc2ff1f6	-0.01073884
160	0xbbbc9a2e	-0.0057556843
161	0x3d2dc6f4	0.042426065
162	0x3d548379	0.051883195
163	0x3d34a0ce	0.044098668
164	0xbc13ccce	-0.009020997
165	0x3dd18d04	0.10231975
166	0x3b9b940d	0.0047478736
167	0x3d2c5a3f	0.042078253
168	0x3dcf82f6	0.10132401
169	0x3dc8dbbd	0.09807537
170	0x3c65c28a	0.0140234325
171	0xbc34ae0f	-0.011027827
172	0xbd0d1456	-0.034443222
173	0xbd80a8c7	-0.06282192
174	0xbc89fe42	-0.016844872
175	0xbc48f52a	-0.012265483
176	0xbd0256e7	-0.031821158
177	0xbb7e7893	-0.0038829192
178	0x3d2923f8	0.041294068
179	0xbc1f195d	-0.009710637
180	0x3d064680	0.032782078
181	0x3b851e18	0.0040624253
182	0x3c674e8f	0.014117851
183	0xbbbfd770	-0.0058545396
184	0xbcad7010	-0.0211716
185	0x3cf7cd0f	0.030249147
186	0xb9a3a131	-0.0003120988
187	0x3dcba769	0.0994404
188	0x3ac190be	0.0014767868
189	0x3d443f76	0.047912084
190	0xbd95cb3f	-0.07314157
191	0x3c18bee8	0.009322859
192	0x3d68bad4	0.0568188
193	0xbcfb5c5e	-0.030683693
194	0x3cff0234	0.03112898
195	0x3d9c9cc2	0.07647087
196	0x3ca50e55	0.020148436
197	0xbc852bd4	-0.01625625
198	0x3c49329e	0.0122801345
199	0x3acbf2b0	0.0015559997
200	0x3d7339c9	0.05938128
201	0x3c0fd360	0.008778423
202	0x3c4bf447	0.012448377
203	0xbd6ead33	-0.058270644
204	0x3d66d2bf	0.056353327
205	0xbdbb68b2	-0.091508284
206	0xbd2c9284	-0.042131916
207	0x3b9c46e6	0.004769194
208	0xbd9e7ae9	-0.07738287
209	0xbdb3abfb	-0.08773037
210	0x3c90c4da	0.017671991
211	0x3cbb02c6	0.02282847
212	0x3da71f88	0.08160311
213	0xbdb14ed5	-0.08657614
214	0xbd9b9444	-0.07596639
215	0x39ba07a2	0.00035482371
216	0xbd80b40b	-0.062843405
217	0xbb45b064	-0.0030164951
218	0xbd84a9eb	-0.06477722
219	0xbd837ed9	-0.06420679
220	0x3d47be3d	0.04876541
221	0xbcbc80c7	-0.023010625
222	0xbc45c0d3	-0.012069899
223	0xbcd26ceb	-0.025686702
224	0x3b039eaa	0.0020083585
225	0xbcefb2c7	-0.029260052
226	0x3d253969	0.040337954
227	0x3d58845e	0.05286061
228	0x3d7bad90	0.06144482
229	0x3d0e05f8	0.03467366
230	0xba80cd79	-0.0009826861
231	0x3d37d11b	0.044877153
232	0xbdaee300	-0.085393906
233	0xbd986417	-0.074409656
234	0xbd2f9110	-0.04286295
235	0x3b7a8b02	0.0038229828
236	0x3ca4c82b	0.020114979
237	0xbd77f5dd	-0.060537208
238	0xbd151c31	-0.03640384
239	0x3d020255	0.031740505
240	0xbc97c6e6	-0.01852746
241	0x3c0719e6	0.008245921
242	0xbd3db283	-0.04631282
243	0xbd9164b7	-0.07099288
244	0xbca6ecc6	-0.020376574
245	0xbccec85d	-0.025242025
246	0xbd82e7d4	-0.06391874
247	0xbd7cec7e	-0.061748974
248	0x3b924e64	0.0044649113
249	0x3b463058	0.0030241217
250	0x3d4e48cc	0.050362393
251	0xbdac92c0	-0.08426428
252	0xbca912fe	-0.020638939
253	0x3d481ab6	0.0488536
254	0x3db2f3e5	0.087379254
255	0xbcbe2adf	-0.023213802

head_v.conv.conv.weight f4 [1, 32, 1, 1]
0	0xbcd32d5b	-0.025778463
1	0x3d8bb602	0.068218246
2	0x3bcd62a4	0.0062678624
3	0xbcdd44af	-0.02701029
4	0x3d239619	0.039938066
5	0x3c1cf134	0.009578992
6	0x3dd16696	0.10224645
7	0xbd3b3ac7	-0.04571035
8	0x3a4c803c	0.0007801091
9	0xbbfb4391	-0.0076679667
10	0x3d3aa57b	0.04556797
11	0x3d329461	0.043598536
12	0xbdad46ce	-0.084607705
13	0x3dd6d05c	0.1048896
14	0x3d3b9247	0.045793798
15	0xbcb1be06	-0.021697056
16	0xbaffb0c5	-0.0019507637
17	0xbb38457a	-0.0028117583
18	0xbda92112	-0.08258261
19	0x3e066de8	0.13127863
20	0xbdd78dc5	-0.10525087
21	0xbd9328a4	-0.07185486
22	0x3d4aad27	0.049481537
23	0xbc9e6305	-0.019334326
24	0xbce9e343	-0.02855075
25	0x3c69a95a	0.014261568
26	0xbde147b4	-0.110000044
27	0xbd6f0ce7	-0.058361914
28	0xbdd74876	-0.10511868
29	0xbdb1ce2d	-0.08681903
30	0x3c0e0d59	0.0086701745
31	0xbc83d9d2	-0.016095076

head_v.fc.weight f4 [1, 66]
0	0x3c6f08c7	0.014589495
1	0xbd169550	-0.03676349
2	0x3a0aa07a	0.0005288195
3	0x3b0afa1c	0.0021206206
4	0x3a0a9875	0.0005287
5	0x3b3ab80c	0.0028491048
6	0xbc288839	-0.010286384
7	0x3d490ffd	0.049087513
8	0xbab056b3	-0.0013453573
9	0x3c629047	0.013828344
10	0x3ce18571	0.02752945
11	0xbdb64fe8	-0.0890196
12	0x3d010fc8	0.03150919
13	0xbccf548f	-0.025308875
14	0xbc685548	-0.014180489
15	0x3d12c17b	0.03582905
16	0x3ba5ea53	0.005063334
17	0x3ab5d0b0	0.0013871398
18	0x3d6cb1cb	0.057786744
19	0x3d169bcc	0.036769673
20	0xbd4de416	-0.050266348
21	0xbcf59904	-0.02998019
22	0x3c5b867b	0.013398762
23	0xbd716a81	-0.05893946
24	0xbc94963a	-0.01813804
25	0xbd57aaaa	-0.052652992
26	0x3c4723ff	0.012154578
27	0xbc19b355	-0.009381135
28	0x3d28a0ec	0.041169092
29	0xbcc305df	-0.02380651
30	0xbbcaecfd	-0.006192802
31	0x3d45211f	0.04812729
32	0x3d307ed1	0.04308969
33	0xbd3ecee2	-0.046584018
34	0xbbf691b2	-0.0075246925
35	0xbc0622b8	-0.0081869885
36	0x3c156901	0.009119273
37	0x3c096156	0.008385023
38	0xbc41eb35	-0.011835863
39	0x3becc4ce	0.0072256094
40	0xbdbd57b9	-0.092452474
41	0xbc9d1a1c	-0.019177489
42	0x3c4a76f9	0.012357467
43	0xbbfc1c2b	-0.0076937876
44	0x3bf5d0cf	0.0075016986
45	0xbd4c4de0	-0.049878955
46	0xbd1eb97a	-0.038751103
47	0x3db1de0a	0.08684929
48	0x3cf7ad98	0.030234143
49	0x3d7fca00	0.0624485
50	0x3c456454	0.012047846
51	0xbc72e9b4	-0.014826227
52	0xbdd78706	-0.105238006
53	0xbc139ef3	-0.009010064
54	0xbdc9e770	-0.09858596
55	0xbd077de8	-0.033079058
56	0x3d0e9b44	0.03481604
57	0x3cd9d8c5	0.026592622
58	0x39e0547b	0.00042787552
59	0xbda6de2c	-0.08147845
60	0xbda63a43	-0.08116581
61	0xbd21b4ca	-0.039479055
62	0xbc259aea	-0.010107735
63	0xbbd5746c	-0.0065141227
64	0x3dc2af9f	0.09506153
65	0x3b986eb6	0.0046518696
