HandyRL/models/2.pth (torch, 155707 bytes, 22 tensors)

conv.weight f4 [32, 1, 3, 3]
0.18350473 -0.09538149 0.10923656 -0.08801406 0.25555736 -0.03886045 -0.17888701 0.21257342
0.2562864 -0.15821363 -0.14023979 -0.009744471 -0.13929181 0.15495911 -0.12255376 -0.050115712
-0.17953643 0.2379186 0.17051128 -0.053380772 -0.124822006 -0.26785192 0.18139303 0.25466806
0.05384351 -0.009769373 0.032423154 0.13293436 -0.08028417 0.1025068 0.11508443 0.2088563
-0.18246214 -0.1601092 0.16911462 -0.17296773 -0.0175439 -0.20363896 -0.13212374 0.22854602
0.052885015 0.121349365 0.044830848 -0.08118091 -0.2205915 -0.29733393 0.29688886 0.23948589
-0.22080126 0.24343885 0.059040587 0.20692319 0.22871229 -0.119781286 0.11975184 -0.035876196
-0.21205525 0.15320386 0.021557543 -0.07767267 0.20983763 0.15228336 0.056455173 0.2517983
-0.13601261 -0.22685239 0.2169758 0.14570409 -0.07457139 0.20908228 -0.21139957 -0.11754286
0.06130964 -0.008545983 -0.305844 0.17794305 -0.2727067 0.04462934 0.17478496 0.21295264
-0.2157017 -0.29614472 0.01942697 -0.15523718 -0.12472659 0.13009709 -0.14092924 0.29087046
0.14713044 0.007814917 0.025064018 0.10863439 0.29045188 0.3113079 0.08529344 0.023389319
0.318502 0.13938741 0.2575406 -0.11271748 -0.20555829 0.16140631 -0.13962974 0.034580838
-0.161571 0.08823556 0.11699635 -0.10177134 -0.30918378 0.019866252 -0.2079861 0.19079417
0.07257435 0.302253 -0.13522622 0.2527757 0.15342198 -4.0412433e-38 -4.0746643e-38 -4.1389477e-38
-4.0479023e-38 -4.03515e-38 -4.0460475e-38 -4.1366148e-38 -4.038518e-38 -4.0454018e-38 -0.08837548 0.14517617
-0.16510962 -0.07084981 -0.28085703 -0.12663092 0.061543487 -0.21142675 -0.2660757 -0.01600889
0.22040758 -0.096397035 -0.018260693 0.16081356 -0.29856595 -0.2588144 0.1949731 0.064305335
-0.17314406 -0.00017201767 -0.32595828 -0.14052355 -0.2983476 -0.26043952 -0.067577556 0.16730845
0.2087767 0.21863513 0.15910785 -0.13047312 0.2454091 -0.18348803 0.049223963 -0.0655417
-0.25861084 0.038885012 -0.28037977 -0.27684662 -0.16855073 -0.08557668 0.11088438 -0.029817007
-0.06977511 0.082371235 -0.20559606 0.16133155 -0.22508575 -0.20349506 -0.03375019 0.16564575
-0.25955442 0.25510266 0.09841355 -0.056965623 -0.16518949 0.08470181 -0.14440863 -0.035785135
-0.15983899 -0.25704622 0.046682946 -0.10727191 0.095621884 -0.24249376 -0.22055873 8.4435e-41
-0.16984384 0.031817738 0.24777818 0.20417097 -0.19931313 0.25396138 0.07859702 -0.32744542
0.22525717 0.17507322 0.23497614 0.05779446 0.17937636 -0.08595779 -0.2408938 0.22334005
0.053794105 -0.29071534 -0.22425236 0.13863537 0.30381674 -0.21937056 0.24501817 0.28966653
-0.121782005 0.26507506 -0.081195086 -0.17093743 0.27188227 -0.035596844 0.05250393 -0.15707764
0.055238184 -0.27753663 0.18959315 -0.2929824 0.21074706 -0.0697355 -0.0863947 0.3012094
0.25598314 0.14509973 0.18650056 0.29591078 -0.15939629 -0.060831252 -0.024953073 -0.08398587
0.13564704 -0.31902957 -0.22329126 -0.034153294 0.14854456 0.12083504 0.17983618 -0.24055982
-0.1268449 0.22084092 -0.13857917 -0.138927 -0.07138655 -0.3215825 0.16494502 0.052273583
00000000: aae8 3b3e 5f57 c3bd 6bb7 df3d b740 b4bd
00000010: 6ad8 823e 232c 1fbd 282e 37be d9ac 593e
00000020: f937 833e c102 22be 059b 0fbe 46a7 1fbc
00000030: 83a2 0ebe 9aad 1e3e 77fd fabd 2246 4dbd
00000040: 66d8 37be efa0 733e 829a 2e3e cca5 5abd
00000050: aea2 ffbd e323 89be 18bf 393e da63 823e
00000060: 038b 5c3d b80f 20bc 24ce 043d f21f 083e
00000070: 076c a4bd 16ef d13d 63b1 eb3d 6dde 553e
00000080: 5bd7 3abe abf3 23be 622c 2d3e 741e 31be
00000090: 3ab8 8fbc bb86 50be 724b 07be f807 6a3e
000000a0: f59d 583d 0486 f83d 8da0 373d 2d42 a6bd
000000b0: bde2 61be 273c 98be d101 983e ca3b 753e
000000c0: ba19 62be 0948 793e 8bd4 713d ace3 533e
000000d0: 8e33 6a3e e44f f5bd 7440 f53d ebf2 12bd
000000e0: 0325 59be 79e1 1c3e 7299 b03c d912 9fbd
000000f0: addf 563e 2bf0 1b3e 8a3d 673d b5eb 803e
00000100: e446 0bbe fe4b 68be e72e 5e3e 7433 153e
00000110: e3b8 98bd aa19 563e 2179 58be 50ba f0bd
00000120: d11f 7b3d 7304 0cbc 9697 9cbe b436 363e
00000130: 36a0 8bbe 41cd 363d d4fa 323e 4210 5a3e
00000140: e8e0 5cbe 48a0 97be 4f25 9f3c 7ff6 1ebe
00000150: a870 ffbd 2c38 053e c14f 10be f9ec 943e
00000160: 5da9 163e 230a 003c 0e53 cd3c b57b de3d
00000170: 1cb6 943e c063 9f3e 54ae ae3d f59a bf3c
00000180: b212 a33e 93bb 0e3e 5ddc 833e 6cd8 e6bd
00000190: df7d 52be b247 253e 19fb 0ebe a3a4 0d3d
000001a0: de72 25be d8b4 b43d c89b ef3d 7e6d d0bd
000001b0: 564d 9ebe 8dbe a23c 4ffa 54be 8c5f 433e
000001c0: dca1 943d e8c0 9a3e be78 0abe d16b 813e
000001d0: a71a 1d3e b606 5c81 88d8 5d81 8358 6181
000001e0: 8663 5c81 c8b1 5b81 ac49 5c81 ff37 6181
000001f0: bae0 5b81 ac40 5c81 34fe b4bd 10a9 143e
00000200: 7f12 29be b519 91bd 7ecc 8fbe 89ab 01be
00000210: 0615 7c3d 4180 58be 133b 88be 1325 83bc
00000220: 86b2 613e cf6b c5bd 7397 95bc 4fac 243e
00000230: a3dd 98be 5283 84be 07a7 473e 84b2 833d
00000240: ad4c 31be a45f 34b9 01e4 a6be 68e5 0fbe
00000250: 04c1 98be 5458 85be 1a66 8abd e852 2b3e
00000260: 8fc9 553e e3e1 5f3e 2bed 223e bf9a 05be
00000270: 864c 7b3e 49e4 3bbe 119f 493d ba3a 86bd
00000280: a468 84be e445 1f3d f08d 8fbe d7be 8dbe
00000290: 9098 2cbe d442 afbd 5a17 e33d cc42 f4bc
000002a0: 41e6 8ebd 40b2 a83d c687 52be 1934 253e
000002b0: e17c 66be 0261 50be a43d 0abd 0a9f 293e
000002c0: 51e4 84be d19c 823e 0b8d c93d c954 69bd
000002d0: 6f27 29be 2478 ad3d dbdf 13be 6f93 12bd
000002e0: d5ac 23be 909b 83be 9e36 3f3d 60b1 dbbd
000002f0: 68d5 c33d 4950 78be 26da 61be 5feb 0000
00000300: 8beb 2dbe 5153 023d 90b9 7d3e 3212 513e
00000310: be18 4cbe 3a07 823e 79f7 a03d eda6 a7be
00000320: d1a9 663e 6546 333e 969d 703e e2b9 6c3d
00000330: 70ae 373e a30a b0bd ddac 76be 41b3 643e
00000340: 3557 5c3d a4d8 94be 69a2 65be 6ef6 0d3e
00000350: de8d 9b3e ada2 60be 0be6 7a3e 2c4f 943e
00000360: d868 f9bd ebb7 873e 9c49 a6bd 390a 2fbe
00000370: 2734 8b3e ffcd 11bd 5c0e 573d f6d8 20be
00000380: 6f41 623d 4819 8ebe b524 423e ca01 96be
00000390: 14ce 573e 7cd1 8ebd b4ef b0bd 1e38 9a3e
000003a0: 3910 833e 0695 143e 01fa 3e3e 9e81 973e
000003b0: c838 23be 312a 79bd 636a ccbc c900 acbd
000003c0: 0fe7 0a3e d857 a3be 77a6 64be 53e4 0bbd
000003d0: 111c 183e 5d78 f73d fa26 383e 5055 76be
000003e0: a1e3 01be 1f24 623e b3e7 0dbe e142 0ebe
000003f0: 1d33 92bd 76a6 a4be 59e7 283e d31c 563d

conv.bias f4 [32]
-0.25582293 0.046449494 0.28320074 -0.19034837 0.23190841 -0.23041186 -0.09961827 -0.2827623
-0.24412958 -0.201111 -0.2675209 -0.0876909 -0.26891983 -9.19165e-39 0.060759958 0.15635864
0.12921101 0.061591912 -0.11737635 0.1592134 -0.12958494 -0.1375532 0.14491935 -0.23605107
-0.03893167 0.08558523 0.30949566 -0.26524037 0.16098985 -0.0776635 0.18587786 0.18709046
00000000: 39fb 82be d341 3e3d b0ff 903e afea 42be
00000010: 6679 6d3e 16f1 6bbe aa04 ccbd 38c6 90be
00000020: 1bfd 79be 0bf0 4dbe 80f8 88be 4997 b3bd
00000030: dcaf 89be 9516 6480 6fdf 783d 7b1c 203e
00000040: e44f 043e cd47 7c3d 0363 f0bd d608 233e
00000050: eab1 04be bfda 0cbe bd65 143e 5fb7 71be
00000060: d176 1fbd 4f47 af3d 3776 9e3e 96cd 87be
00000070: 86da 243e 0b0e 9fbd c456 3e3e a494 3f3e

blocks.0.conv.weight f4 [32, 32, 3, 3]
0.019947723 0.04354919 -0.033627663 0.00307883 0.0059215883 0.07049454 0.02429651 0.015233841
-0.025944943 0.041554403 -0.01450363 -0.008807228 -0.010203442 -0.03801162 -0.015570865 -2.551458e-05
0.004067987 -0.059182264 0.083996765 0.063525684 0.021955263 -0.039771225 0.04128418 0.03251138
0.018703906 -0.06676785 -0.022372702 -0.03644565 -0.009855291 -0.05926081 0.03790121 -0.028381256
-0.025106717 0.03450174 -0.04682967 0.0023012494 0.005200288 0.05649362 0.046330493 0.027794028
-0.04081661 0.027391594 0.059726223 -0.022355355 -0.010661803 0.049677573 -0.008251978 -0.03936289
0.028196944 -0.027167358 -0.022737369 -0.042982582 0.027088335 0.017875938 -0.040350616 0.05534633
0.01730577 0.012224252 -0.03875591 0.005910435 0.014109702 -0.03216612 0.0070801596 -0.0075479993
0.053469732 0.040017825 -0.0080407625 -0.03523668 -0.014374202 0.01297457 0.033706095 -0.03896724
-0.00046142875 -0.049056266 -0.024778405 -0.013400038 -0.020375997 -0.024637323 0.0026547923 -0.021886652
-0.033568095 -0.022727754 0.05487616 -0.01586237 -0.00442451 -0.048551437 -0.03177423 -0.01947381
-0.031848613 0.0011666137 0.04382078 0.017075012 -0.020240217 -0.0133682685 0.040867317 -0.0036153316
0.03297393 -0.037311766 -0.06717766 0.01066812 -0.00981075 -0.028501451 -0.011562554 -0.023048023
-0.011418218 -0.0052865986 0.010254769 0.0056745564 -0.017225023 -0.029993227 0.03539022 -0.029670121
-0.011474181 -0.020761542 0.033046752 -0.044650815 0.033483543 -2.89532e-40 -4.3491e-40 -4.4943e-40
-5.63627e-40 -2.44838e-40 -2.57284e-40 -2.6833e-40 -4.40296e-40 -2.99016e-40 0.020064132 -0.022886248
-0.029218981 0.01637095 -0.061478212 0.019737184 -0.022794768 -0.022128116 -0.011167303 -0.043320704
-0.0061769066 -0.048291516 0.00083366944 -0.032024007 0.075047314 -0.03190528 0.006553036 0.017763982
0.015697496 -0.034454167 -0.012386677 -0.022937315 -0.009217404 0.04821205 -0.0035165576 -0.039254304
-0.0053549693 0.026186319 -0.016561253 0.024721628 -0.04946498 0.0018293074 0.024500644 0.043419447
-0.023973519 0.056911882 -0.020740913 0.024941182 0.007348372 -0.0033162904 -0.0018572665 0.005157954
0.0048365397 -0.013123478 -0.018143928 0.033426866 -0.033123292 0.04225495 -0.00863774 -0.06375294
0.05166437 -0.051498715 -0.031794026 -0.044985987 8.522861e-05 -0.012977146 0.002268079 -0.0031117948
-0.0009767262 0.02209582 -5.0533494e-10 0.0017613557 0.0012731878 0.043260086 0.057479415 -0.018426765
-0.021026695 0.00046390836 -0.013884199 9.9795e-41 -0.033041984 -0.009789925 -0.012635452 -0.035645373
0.041127983 -0.046079207 0.06153682 -0.020365352 -0.026815927 0.023626197 -0.043642737 -0.01683616
-0.015190211 0.049211647 0.012643789 -0.005778111 -0.04667862 -0.042707626 0.021962127 0.0097562075
-0.025560766 0.026883697 -0.02238894 0.05881697 -0.037507415 0.055194978 -0.014946696 -0.05381892
0.0287876 -0.010593404 0.06939156 0.056859527 0.0020533444 0.0041186856 -0.017734442 -0.055025257
-0.015581192 -0.0628302 0.0112646315 0.014036949 0.051939603 0.0061454233 0.046532393 0.02927344
0.045387726 0.025969889 -0.023925494 0.003910442 0.019566733 -0.059555113 -0.002816744 -0.0150974
0.052951444 -0.017415665 0.017445212 -0.0020683354 -0.009677795 0.013096317 0.02248609 -7.126083e-05
00000000: 6869 a33c a360 323d 29bd 09bd 32c6 493b
00000010: e209 c23b 715f 903d 7909 c73c 5c97 793c
00000020: 7d8a d4bc f334 2a3d a2a0 6dbc 314c 10bc
00000030: 562c 27bc 13b2 1bbd f11c 7fbc 2508 d6b7
00000040: c04c 853b 1a69 72bd 7f06 ac3d c119 823d
00000050: 86db b33c 27e7 22bd 9a19 293d a72a 053d
00000060: ef38 993c 95bd 88bd f546 b7bc 0948 15bd
00000070: 1678 21bc 77bb 72bd 4d3e 1b3d cf7f e8bc
00000080: 9aac cdbc b251 0d3d 78d0 3fbd 8fd0 163b
00000090: 2d67 aa3b db65 673d 0bc5 3d3d 4db0 e33c
000000a0: 512f 27bd 5664 e03c 7ca3 743d 9422 b7bc
000000b0: d8ae 2ebc b67a 4b3d 4e33 07bc fb3a 21bd
000000c0: 47fd e63c 148e debc b843 babc 810e 30bd
000000d0: 5be8 dd3c 8f70 923c b046 25bd d5b2 623d
000000e0: d5c4 8d3c 3b48 483c 84be 1ebd 53ac c13b
000000f0: 612c 673c 9fc0 03bd af00 e83b 3555 f7bb
00000100: 1403 5b3d bbe9 233d 67bd 03bc 5654 10bd
00000110: c681 6bbc 4a93 543c 670f 0a3d 1d9c 1fbd
00000120: ebeb f1b9 39ef 48bd 15fc cabc d58b 5bbc
00000130: 90eb a6bc 36d4 c9bc 06fc 2d3b a34b b3bc
00000140: b37e 09bd 8e2f babc d3c5 603d cdf1 81bc
00000150: 7bfb 90bb dfdd 46bd b225 02bd 8a87 9fbc
00000160: b173 02bd 0fe9 983a 6b7d 333d e5e0 8b3c
00000170: d0ce a5bc 9506 5bbc 7d64 273d 33ef 6cbb
00000180: ac0f 073d 39d4 18bd 7194 89bd 57c9 2e3c
00000190: 45bd 20bc e07b e9bc de70 3dbc 35cf bcbc
000001a0: 7a13 3bbc 343b adbb 9e03 283c a1f1 b93b
000001b0: 7e1b 8dbc 5bb4 f5bc 56f5 103d c10e f3bc
000001c0: 34fe 3bbc 1c14 aabc 085c 073d c6e3 36bd
000001d0: 0a26 093d 1927 0380 5abc 0480 d4e4 0480
000001e0: 2a23 0680 82aa 0280 34cd 0280 ffeb 0280
000001f0: 5ecb 0480 8941 0380 895d a43c f17b bbbc
00000200: a55c efbc 5f1c 863c 94d0 7bbd e0af a13c
00000210: 18bc babc 0646 b5bc 10f7 36bc 0d71 31bd
00000220: a667 cabb 53cd 45bd 9c8a 5a3a 9b2b 03bd
00000230: 68b2 993d 1caf 02bd daba d63b c585 913c
00000240: 0998 803c d01f 0dbd 7df1 4abc 09e7 bbbc
00000250: 9804 17bc 007a 453d 0c76 66bb 1fc9 20bd
00000260: bd78 afbb b184 d63c 77ab 87bc 0385 ca3c
00000270: ca9b 4abd 5fc5 ef3a 93b5 c83c 97d8 313d
00000280: 1d64 c4bc 6f1c 693d d9e8 a9bc 7351 cc3c
00000290: 9dca f03b 1f56 59bb 866f f3ba 0e04 a93b
000002a0: d67b 9e3b db03 57bc 93a2 94bc 9cea 083d
000002b0: 4aac 07bd 8713 2d3d 4f85 0dbc e790 82bd
000002c0: 059e 533d 51f0 52bd 743a 02bd 3a43 38bd
000002d0: c3bc b238 189e 54bc 0da4 143b 41ef 4bbb
000002e0: 7e05 80ba 4b02 b53c c9e7 0ab0 4add e63a
000002f0: 18e1 a63a 7d31 313d 896f 6b3d baf3 96bc
00000300: 2d40 acbc ba38 f339 8d7a 63bc 3016 0100
00000310: 0857 07bd ec65 20bc ed04 4fbc e200 12bd
00000320: d175 283d 8dbd 3cbd 080e 7c3d 3dd5 a6bc
00000330: 13ad dbbc ba8b c13c bac2 32bd fdeb 89bc
00000340: 5de0 78bc 2792 493d e527 4f3c 4f56 bdbb
00000350: 1532 3fbd 31ee 2ebd ebe9 b33c 80d8 1f3c
00000360: d064 d1bc 333b dc3c 0369 b7bc 10ea 703d
00000370: 60a1 19bd 2114 623d fde2 74bc 3a71 5cbd
00000380: f9d3 eb3c f58f 2dbc 2a1d 8e3d 89e5 683d
00000390: 6791 063b 0af6 863b d247 91bc 2a62 61bd
000003a0: 4248 7fbc 1fad 80bd 4a8f 383c 3bfb 653c
000003b0: 9fbe 543d 8c5f c93b c098 3e3d dace ef3c
000003c0: 7be8 393d cebe d43c 66ff c3bc 2a23 803b
000003d0: 6a4a a03c 10f0 73bd 1f99 38bb 165b 77bc
000003e0: 9de3 583d 4cab 8ebc 43e9 8e3c e98c 07bb
000003f0: 9d8f 1ebc ef91 563c c034 b83c de71 95b8

blocks.0.bn.weight f4 [32]
0.9529126 0.9177982 0.9392605 0.8496389 0.92956597 0.91426367 0.9704569 0.94170606
0.9392211 0.94525653 0.88925433 0.9130382 0.92473716 0.9259086 0.94486564 0.8944897
0.95882493 0.88786083 0.9071604 0.9593031 0.9503684 0.9747619 0.9918606 0.94038117
0.9447221 0.96589786 0.93320173 0.974389 0.9228586 0.94346213 0.8965641 0.8905226
00000000: 15f2 733f d3f4 6a3f 6073 703f ef81 593f
00000010: 09f8 6d3f 2f0d 6a3f dd6f 783f a613 713f
00000020: cb70 703f 55fc 713f 2ca6 633f dfbc 693f
00000030: 93bb 6c3f 5908 6d3f b7e2 713f 47fd 643f
00000040: 8d75 753f d94a 633f aa3b 683f e394 753f
00000050: 584b 733f ff89 793f 94ea 7d3f d2bc 703f
00000060: 4fd9 713f 1545 773f 4fe6 6e3f 8f71 793f
00000070: 7640 6c3f bc86 713f 3a85 653f 4af9 633f

blocks.0.bn.bias f4 [32]
0.031995896 0.010298069 0.003481268 -0.016909089 -0.0038248615 -0.004000532 0.026878644 0.016550453
0.03430434 0.0058959355 -0.002582701 -0.0109783625 0.0006126269 0.00958657 0.0012637017 -0.0018552903
0.02170549 -0.011185731 -0.01066732 0.005283394 0.0033970862 0.009746187 0.028287807 0.014084807
0.023698643 0.031179778 0.011866886 0.025730653 0.005860018 0.006552631 0.016133418 -0.04951488
00000000: 210e 033d 3bb9 283c fc25 643b ee84 8abc
00000010: 87aa 7abb e516 83bb 9a30 dc3c d194 873c
00000020: b582 0c3d b132 c13b 8842 29bb 97de 33bc
00000030: b298 203a fd10 1d3c cba2 a53a 362d f3ba
00000040: b6cf b13c 5b44 37bc fcc5 2ebc 5220 ad3b
00000050: a6a1 5e3b 79ae 1f3c d5bb e73c f6c3 663c
00000060: a823 c23c bc6c ff3c 546d 423c 17c9 d23c
00000070: 6505 c03b 74b7 d63b 3b2a 843c 1dd0 4abd

blocks.0.bn.running_mean f4 [32]
0.014816507 -0.46735308 -0.012586692 0.066149116 0.16567627 -0.22661279 -0.24703975 0.107056975
-0.19099961 0.043881938 -0.14838764 0.23831066 -0.14111143 -0.3008176 0.5020547 -0.18755402
-0.0679541 0.035516314 -0.12428981 0.25545418 0.0023443387 0.23326412 -0.40095907 -0.0845339
-0.22497596 -0.07312405 -0.09775992 0.22579218 -0.24231401 -0.3978446 -0.09109697 0.3294364
00000000: efc0 723c e748 efbe 6a38 4ebc 3079 873d
00000010: 0aa7 293e 2f0d 68be fdf7 7cbe b040 db3d
00000020: 6795 43be 8cbd 333d eef2 17be b607 743e
00000030: 847f 10be c404 9abe a886 003f 290e 40be
00000040: 852b 8bbd 8e79 113d a88b febd e4ca 823e
00000050: 7aa3 193b cadc 6e3e 824a cdbe 1c20 adbd
00000060: 1960 66be 10c2 95bd 5a36 c8bd 1136 673e
00000070: 2a21 78be 4ab2 cbbe 0c91 babd e3ab a83e

blocks.0.bn.running_var f4 [32]
0.04551214 0.07135388 0.09632646 0.13143685 0.047165014 0.05475052 0.06682045 0.058982957
0.026071332 0.021657636 0.08963629 0.07989719 0.031699967 0.07214536 0.07680793 0.05400894
0.047457673 0.1302592 0.09148957 0.10320732 0.064912826 0.10883584 0.027566927 0.058853097
0.032889254 0.03482435 0.076223664 0.05947986 0.028028978 0.07173989 0.07914435 0.1113414
00000000: f06a 3a3d fc21 923d cf46 c53d 6297 063e
00000010: 1a30 413d 1542 603d 29d9 883d 1d98 713d
00000020: 8c93 d53c 5b6b b13c 3b93 b73d 23a1 a33d
00000030: d3d7 013d f2c0 933d 7a4d 9d3d 7a38 5d3d
00000040: fa62 423d ab62 053e e25e bb3d 5c5e d33d
00000050: 04f1 843d 53e5 de3d 09d4 e13c f20f 713d
00000060: e2b6 063d faa3 0e3d 271b 9c3d 27a1 733d
00000070: 079d e53c 5dec 923d 6f16 a23d f606 e43d

blocks.1.conv.weight f4 [32, 32, 3, 3]
-0.048222415 -0.043765053 -0.047587942 0.031102467 -0.008187337 -0.073978215 -0.020504486 -0.036231145
-0.0042027645 0.020327888 -0.019568007 -0.046001848 0.030962944 -0.07225973 -0.033730667 0.012095825
0.010119093 -0.05255719 0.031391084 0.051386293 -0.038500994 0.032232422 -0.021254014 0.07454751
0.02315036 -0.032258973 0.03507077 0.0067570712 -0.012985558 0.044179376 0.052411936 0.06460948
-0.008321862 0.06359552 0.040917266 -0.0020462235 -0.017750379 -0.0028487407 0.013153939 -3.2765074e-05
0.058175553 0.008284456 0.062641054 -0.0071381405 -0.002992845 0.027665166 0.029115414 0.026533835
-0.029790116 0.0011558768 -0.053587835 0.007942872 0.006464399 0.01471322 -0.017631207 0.025673483
-0.01702031 -0.0081200255 -0.06273782 -0.034026597 0.06860757 0.0033027395 -0.03673697 -0.005991173
0.010076647 -0.078973666 0.032182094 0.009145642 0.062034402 -0.011673096 -0.041726474 -0.012674808
-0.020211695 -0.009448909 0.025367169 -0.005252624 -0.025086388 0.027933128 -0.026530202 -0.0435862
0.0362341 0.05116582 -0.028824758 0.012626753 -0.046462946 -0.007883131 0.034034334 -0.021623807
0.003926566 -0.050007477 0.02992513 0.0036003918 0.045041896 -0.017632028 0.06830696 0.016137525
0.0052841734 0.023766283 -0.034178652 0.03273179 0.016307574 -0.063433096 0.020500273 0.05048121
-0.015431565 -0.047425434 0.067056544 -0.054055236 0.026758948 -0.021890616 0.026315711 -0.041972872
-0.030743781 -0.050034307 -0.0018276635 0.041309673 -0.047472496 0.04217163 -0.02877543 0.054015666
0.01895687 -0.07021228 -0.0045392434 0.05979471 -0.037470408 0.052323386 -0.02647453 0.026787562
0.019005448 0.049647648 0.0106620435 0.006717156 -0.0042686593 -0.024611793 0.06901965 0.042259462
0.0019863886 -0.019268807 -0.031881675 -0.043064184 -0.05193548 -0.02871068 -0.004629867 0.040504925
0.007955321 -0.04725872 -0.04348563 -0.06947577 0.028855275 0.016569851 -0.02752155 -0.013645283
0.016043302 -0.047437783 -0.028389774 -0.056707315 -0.04553469 0.019945178 0.029227525 0.033518445
0.06500586 0.046496924 0.006644102 0.009774357 -0.05562091 -0.016967442 -0.012898585 -0.03830197
0.0033160406 0.03789515 0.043352913 -0.06507031 -0.04457667 -0.032592103 0.042879473 0.008619489
0.05196037 0.018086782 -0.041880585 0.06399463 -0.04276569 0.03658025 -0.027133096 -0.056442726
-0.04305073 0.0450558 -0.023774968 0.050176717 -0.011583815 0.023521028 0.03162307 -0.02215547
0.048833355 -0.052180335 -0.02607815 0.036762055 -0.01342611 -0.038357496 0.056770887 -0.059163664
0.076473966 -0.043936405 -0.0064011607 -0.0063521992 -0.026543196 0.05194159 -0.03127274 -0.01708225
0.0169407 0.08069857 0.0343624 0.005497887 -0.025754293 0.0042199595 -0.0648207 0.077026114
-0.00467761 0.038591165 0.022728048 0.036625747 -0.035807442 0.066190176 0.03708066 -0.0021010053
-0.017909758 -0.0025107274 0.007947607 0.027198266 -0.015157795 0.024772016 0.011399146 0.012556457
0.07036161 -0.002391898 0.03429482 0.053556126 -0.060583975 -0.055190064 -0.03031818 0.022062138
-0.0023551695 -0.019325988 0.021726739 0.009707138 -0.003678441 -0.050098564 0.046665907 -0.041497268
0.006998142 0.0448623 -0.025978314 -0.04972853 -0.025246156 0.02981412 0.017153773 -0.04292616
00000000: de84 45bd fc42 33bd 93eb 42bd 9aca fe3c
00000010: 2e24 06bc e481 97bd 06f9 a7bc 1c67 14bd
00000020: 58b7 89bb ac86 a63c 164d a0bc 6f6c 3cbd
00000030: 00a6 fd3c e9fc 93bd 2b29 0abd 912d 463c
00000040: 8dca 253c 3546 57bd f093 003d 6f7a 523d
00000050: 38b3 1dbd 2506 043d e61c aebc 5dac 983d
00000060: d3a5 bd3c fc21 04bd 5ea6 0f3d 6c6a dd3b
00000070: 61c1 54bc 6ff5 343d e6ad 563d fa51 843d
00000080: 6b58 08bc 5e3e 823d dd98 273d ef19 06bb
00000090: 3e69 91bc f0b1 3abb 9e83 573c 3b6d 09b8
000000a0: 7d49 6e3d 87bb 073c f449 803d 10e7 e9bb
000000b0: 9b23 44bb 0fa2 e23c 7383 ee3c 7c5d d93c
000000c0: 670a f4bc ca80 973a eb7e 5bbd d222 023c
000000d0: 4fd3 d33b b80f 713c 526f 90bc 3251 d23c
000000e0: 2d6e 8bbc db09 05bc b07c 80bd 795f 0bbd
000000f0: 2082 8c3d c672 583b 8179 16bd 9a51 c4bb
00000100: 8518 253c f2bc a1bd 5fd1 033d 9ad7 153c
00000110: c917 7e3d 8340 3fbc 61e9 2abd ffa9 4fbc
00000120: ff92 a5bc 99cf 1abc cfce cf3c 341e acbb
00000130: f881 cdbc 04d4 e43c de55 d9bc 7187 32bd
00000140: 356a 143d 4093 513d e621 ecbc 71e0 4e3c
00000150: ee4f 3ebd 3f28 01bc 9667 0b3d 6924 b1bc
00000160: 6caa 803b a4d4 4cbd 8c25 f53c 8df4 6b3b
00000170: da7d 383d 0b71 90bc 85e4 8b3d d832 843c
00000180: dc26 ad3b 82b1 c23c eafe 0bbd c511 063d
00000190: 7697 853c 36e9 81bd 30f0 a73c 63c5 4e3d
000001a0: add4 7cbc 2c41 42bd f154 893d 0669 5dbd
000001b0: 9535 db3c f353 b3bc 0c94 d73c bfeb 2bbd
000001c0: 62da fbbc c6f0 4cbd 368e efba 5534 293d
000001d0: 8572 42bd 29bc 2c3d 73ba ebbc 883f 5d3d
000001e0: 704b 9b3c 75cb 8fbd efbd 94bb 4ceb 743d
000001f0: 927a 19bd 0c51 563d 1de1 d8bc 9771 db3c
00000200: 50b1 9b3c 555b 4b3d daaf 2e3c 971b dc3b
00000210: 1ce0 8bbb ac9e c9bc 2d5a 8d3d 4218 2d3d
00000220: 122e 023b 9ed9 9dbc 5c96 02bd 1264 30bd
00000230: 4cba 54bd a932 ebbc 24b6 97bb 7ee8 253d
00000240: 0957 023c 5c92 41bd fd1d 32bd 5049 8ebd
00000250: e661 ec3c 7fbd 873c e074 e1bc 7790 5fbc
00000260: 3e6d 833c 1f4e 42bd ac91 e8bc ee45 68bd
00000270: 9582 3abd 1264 a33c 906e ef3c a34a 093d
00000280: cb21 853d 8f73 3e3d c4b6 d93b a024 203c
00000290: c0d2 63bd 4eff 8abc 9654 53bc 87e2 1cbd
000002a0: ee51 593b f237 1b3d d392 313d 9543 85bd
000002b0: 0796 36bd 4c7f 05bd 63a2 2f3d c238 0d3c
000002c0: 66d4 543d bb2a 943c fa8a 2bbd 9e0f 833d
000002d0: 132b 2fbd 2cd5 153d 3a46 debc 7d30 67bd
000002e0: f655 30bd 6e8c 383d b9c3 c2bc 1a86 4d3d
000002f0: 0bca 3dbc 2caf c03c 3187 013d 637f b5bc
00000300: 7c05 483d 0cbb 55bd d8a1 d5bc cf93 163d
00000310: 30f9 5bbc c01c 1dbd 9788 683d 9955 72bd
00000320: 629e 9c3d a9f6 33bd d4c0 d1bb 1c26 d0bb
00000330: 1e71 d9bc b4c0 543d d817 00bd 13f0 8bbc
00000340: 39c7 8a3c 4b45 a53d 97bf 0c3d 9e27 b43b
00000350: abfa d2bc 9647 8a3b b7c0 84bd debf 9d3d
00000360: a346 99bb c511 1e3d 2c30 ba3c e104 163d
00000370: d3aa 12bd b78e 873d e4e1 173d 05b1 09bb
00000380: 7cb7 92bc 048b 24bb ae36 023c e6ce de3c
00000390: 6658 78bc afee ca3c 7cc3 3a3c 99b9 4d3c
000003a0: bf19 903d 64c1 1cbb ba78 0c3d ab5d 5b3d
000003b0: e726 78bd fa0e 62bd d55d f8bc a8bb b43c
000003c0: 3059 1abb 8951 9ebc 46fc b13c b00a 1f3c
000003d0: 0012 71bb 2734 4dbd c024 3f3d 0af9 29bd
000003e0: ac50 e53b 88c1 373d 79d0 d4bc 25b0 4bbd
000003f0: 07d1 cebc be3c f43c 1286 8c3c 57d3 2fbd

blocks.1.bn.weight f4 [32]
0.96767795 0.97692776 0.9136984 0.96697944 0.98530877 0.9920545 1.0088865 1.0154138
0.9640373 0.98138624 0.91842955 0.9567387 0.9819284 0.9507129 0.96427286 0.9622811
0.95469016 0.9587062 0.93876696 0.95520246 0.92581713 0.9675765 0.9842864 0.96178514
1.0070236 0.95836633 0.98123205 0.9688268 0.97180337 0.9997585 0.95846444 0.9556441
00000000: beb9 773f f017 7a3f 23e8 693f f78b 773f
00000010: 323d 7c3f 49f7 7d3f 3123 813f 14f9 813f
00000020: 26cb 763f 213c 7b3f 331e 6b3f d4ec 743f
00000030: a95f 7b3f ec61 733f 96da 763f 0e58 763f
00000040: 9366 743f c56d 753f 0853 703f 2688 743f
00000050: 5a02 6d3f 18b3 773f 32fa 7b3f 8d37 763f
00000060: 26e6 803f 7f57 753f 0632 7b3f 0805 783f
00000070: 1bc8 783f 2cf0 7f3f ed5d 753f 17a5 743f

blocks.1.bn.bias f4 [32]
0.01370621 0.013038152 -0.0332929 0.014210272 0.028645542 0.054026343 0.036874294 0.068418056
-0.0061449846 0.015792847 0.0031998034 0.019805914 -0.0011901001 0.0069274977 0.03170396 0.0050183428
0.01874716 0.021490054 0.016908221 0.009717665 -0.0026587958 0.013422357 0.038544513 -0.0037887879
0.043684106 -0.0028090007 0.049205553 0.024468992 0.022372128 0.048633162 -0.023685953 -0.0126459
00000000: 0390 603c f99d 553c 235e 08bd 33d2 683c
00000010: 0eaa ea3c ba4a 5d3d 8009 173d c41e 8c3d
00000020: de5b c9bb 0060 813c cbb3 513b 0340 a23c
00000030: 22fd 9bba 1000 e33b 03dc 013d e970 a43b
00000040: a593 993c e90b b03c 1c83 8a3c d736 1f3c
00000050: 313f 2ebb 72e9 5b3c dae0 1d3d 504d 78bb
00000060: 1bee 323d 3617 38bb c38b 493d 3273 c83c
00000070: c145 b73c 9133 473d 0b09 c2bc c030 4fbc

blocks.1.bn.running_mean f4 [32]
0.06733154 0.050858553 0.4382714 -0.03018804 -0.13385232 -0.75455785 0.009517424 -0.25295082
0.5023505 -0.2345955 -0.4415086 -0.16785313 0.18277712 -0.5990964 0.2379916 0.25357813
-0.53252995 -1.2041514 -0.63367164 0.26867765 -0.2990018 -0.1274696 -0.44146508 0.17330812
0.101410724 -0.1354406 -0.23999856 -0.15176165 -0.090635754 -0.3034867 -0.01502203 0.03966722
00000000: 1ee5 893d 0f51 503d 1c65 e03e e94c f7bc
00000010: 9510 09be b42a 41bf f8ee 1b3c c582 81be
00000020: 0b9a 003f ce39 70be 6a0d e2be b1e1 2bbe
00000030: ed29 3b3e 625e 19bf 12b4 733e fed4 813e
00000040: e253 08bf a221 9abf 4e38 22bf 1e90 893e
00000050: c416 99be 6487 02be b607 e2be af77 313e
00000060: 6db0 cf3d f1b0 0abe 2fc2 75be 6867 1bbe
00000070: 3d9f b9bd 9c62 9bbe f61e 76bc 187a 223d

blocks.1.bn.running_var f4 [32]
0.37241733 0.41859534 0.5194808 0.573053 0.48157534 0.42588344 0.6666427 0.51704466
0.49180624 0.46495524 0.46673393 0.50077647 0.25294203 0.7194603 0.4917597 0.6948066
0.7365287 0.88510853 0.7253526 0.629116 0.63758916 0.26322994 0.49294278 0.53882384
0.36433893 0.6102056 0.27071333 0.32884637 0.42558601 0.4269329 0.42181265 0.33926943
00000000: 7cad be3e 2152 d63e b2fc 043f 9ab3 123f
00000010: 0b91 f63e 650d da3e 19a9 2a3f 0a5d 043f
00000020: 07ce fb3e 9d0e ee3e c0f7 ee3e e332 003f
00000030: 9e81 813e 8d2e 383f edc7 fb3e d8de 313f
00000040: 258d 3c3f 7996 623f b5b0 393f bf0d 213f
00000050: 0b39 233f 13c6 863e ff62 fc3e 5cf0 093f
00000060: a28a ba3e 6f36 1c3f f09a 8a3e 8d5e a83e
00000070: 69e6 d93e f396 da3e d4f7 d73e b9b4 ad3e

blocks.2.conv.weight f4 [32, 32, 3, 3]
0.039804522 0.0024788612 0.067895085 0.045166604 -0.043498475 -0.10707383 0.037531037 0.072193824
0.019486563 -0.0026263725 -0.07520502 0.009625581 0.00048349804 -0.06316556 0.051179398 0.032194
-0.021428106 0.002549979 0.0056689656 -0.017781608 0.044410564 0.06600621 0.020978395 -0.051508453
-0.040895257 0.032958824 0.025426166 0.0011107612 -0.03946839 0.038327783 0.03678236 -0.065852724
-0.039372593 -0.06348041 -0.05237842 -0.045702312 0.021242738 -0.018562589 -0.06508062 0.019661272
-0.05385138 0.007944598 0.035544246 0.06668385 0.055320192 -0.057499688 -0.025613768 0.06575249
-0.080593444 0.019298792 0.025678819 -0.0776719 0.052170243 -0.035171583 0.016364379 -0.053509604
0.0733632 -0.06568464 0.016500551 -0.024757069 0.04924204 -0.041934926 0.030154709 -0.09370382
-0.023268996 -0.0029848027 0.0062337993 0.0069324966 -0.026082557 0.063643366 -0.08175122 0.05132626
-0.027309366 -0.0063384483 -0.009990733 -0.035575543 -0.024983043 -0.046291824 -0.054960348 -0.016799342
-0.039883886 -0.012515749 -0.03439648 -0.008724221 0.0037809683 -0.023559447 0.060495347 -0.10456851
-0.030484207 -0.062770374 -0.079090565 0.024355467 0.0065934104 -0.0166686 0.0009465036 0.019658215
-0.123169415 -0.007156388 -0.04543967 -0.05694087 -0.02138508 0.0005625144 -0.033656467 -0.015288194
-0.02348506 -0.081652164 -0.00087608263 -0.0105392365 -0.020893363 -0.04127742 -0.045642518 -0.026536793
0.022229476 0.023622213 0.026270637 0.03457426 0.037394937 -0.04678349 -0.034479585 -0.030055255
0.04799857 -0.002062229 0.053528007 -0.016201174 0.012426824 0.03325286 -0.10163747 0.03247112
0.007429404 -0.06934045 0.061891373 0.01779057 0.006995617 -0.016636701 -0.024802962 -0.06566134
0.022242501 0.059026964 -0.026991373 -0.0339014 0.016838605 0.03293611 0.034081977 -0.023896944
-0.006648184 -0.024089312 -0.018792786 -0.029901575 0.0055843093 -0.06924629 0.02745582 0.036786597
0.03689868 0.0033500108 0.018476056 -0.019809304 -0.035737887 -0.013200187 0.016148916 -0.04015093
0.03317226 -0.016955156 -0.021548526 0.032050245 0.037227917 -0.09732552 -0.036399614 0.059825037
0.015765939 0.008998749 0.034172162 -0.0014818116 -0.0022427472 0.06255972 0.020384723 -0.0028572856
-0.042747814 -0.004131819 -0.04551716 -0.05203913 -0.022919679 0.019022258 0.076415665 -0.008787799
0.06358617 0.013297534 -0.010693753 0.008391767 0.019674236 -0.096940346 0.03982214 -0.018674323
-0.005817631 -0.035028655 -0.044125527 -0.029594991 -0.045122556 0.0023299756 -0.09076096 0.03944115
0.02746409 -0.14969663 0.005356168 -0.019477682 -0.01772896 0.022918636 -0.07690886 -0.037521563
-0.09316173 0.04853115 -0.019257082 0.012865092 -0.02920965 -0.020436624 0.0029559406 -0.016617969
-0.014212585 -0.09117752 0.057169404 -0.02996408 0.03794557 -0.010987226 0.009885873 0.041614503
-0.0470769 0.020270271 -0.01955318 0.02612691 -0.023380606 -0.030133959 0.0122050615 -0.026395174
-0.013332895 0.055099707 -0.031243654 0.01661826 -0.013222736 -0.059581622 0.0026077076 -0.0011607832
-0.05555279 0.025767991 0.012727515 -0.039683808 -0.04227173 -0.0004758604 -0.08458066 -0.014602158
-0.03994193 -0.056893323 -0.091517314 -0.044907033 0.034970965 -0.017360656 0.009183231 -0.023061719
00000000: 110a 233d 6474 223b 940c 8b3d 9e00 393d
00000010: 752b 32bd 8649 dbbd 25ba 193d 5bda 933d
00000020: 49a2 9f3c 381f 2cbb 1705 9abd 9db4 1d3c
00000030: 027e fd39 f25c 81bd 7da1 513d dbdd 033d
00000040: ff89 afbc 8c1d 273b bbc2 b93b bcaa 91bc
00000050: dae7 353d 442e 873d e2da ab3c 87fa 52bd
00000060: c981 27bd d5ff 063d 894a d03c f696 913a
00000070: 9ba9 21bd 98fd 1c3d 1aa9 163d cbdd 86bd
00000080: 2845 21bd 0402 82bd c18a 56bd 5932 3bbd
00000090: 4005 ae3c 9210 98bc fd48 85bd ad10 a13c
000000a0: 4493 5cbd 0f2a 023c d896 113d 8b91 883d
000000b0: 6d97 623d cb84 6bbd f7d3 d1bc 3ea9 863d
000000c0: 2d0e a5bd 8018 9e3c 635c d23c 7212 9fbd
000000d0: 77b0 553d 1410 10bd 970e 863c e32c 5bbd
000000e0: 723f 963d ab85 86bd 2a2c 873c 56cf cabc
000000f0: 05b2 493d f5c3 2bbd 0207 f73c cae7 bfbd
00000100: 9f9e bebc ae9c 43bb e644 cc3b ff29 e33b
00000110: 16ab d5bc 7457 823d 2f6d a7bd 7c3b 523d
00000120: e4b7 dfbc c2b2 cfbb 2cb0 23bc a9b7 11bd
00000130: 3da9 ccbc 7f9c 3dbd 1a1e 61bd c69e 89bc
00000140: 495d 23bd db0e 4dbc 53e3 0cbd 09f0 0ebc
00000150: 1fca 773b beff c0bc f8c9 773d 0428 d6bd
00000160: 04ba f9bc c18d 80bd 3cfa a1bd 1e85 c73c
00000170: 890d d83b 968c 88bc c81e 783a 440a a13c
00000180: 3f40 fcbd 2280 eabb f31e 3abd d43a 69bd
00000190: c32f afbc b475 133a 5ddb 09bd 557b 7abc
000001a0: be63 c0bc 4039 a7bd e9a8 65ba c3ac 2cbc
000001b0: 8f28 abbc 8312 29bd a6f3 3abd b063 d9bc
000001c0: 971a b63c 5f83 c13c 8535 d73c bd9d 0d3d
000001d0: 6f2b 193d 0ba0 3fbd 773a 0dbd 7036 f6bc
000001e0: 269a 443d 7626 07bb 2f40 5b3d 53b8 84bc
000001f0: e199 4b3c 2734 083d 4e27 d0bd 7000 053d
00000200: 5c72 f33b 5e02 8ebd cf81 7d3d 88bd 913c
00000210: 7d3b e53b b149 88bc 952f cbbc 7479 86bd
00000220: e835 b63c 42c6 713d 031d ddbc 32dc 0abd
00000230: 1df1 893c 04e8 063d 8b99 0b3d 86c3 c3bc
00000240: 02d9 d9bb f356 c5bc 54f3 99bc 26f4 f4bc
00000250: 95fc b63b 00d1 8dbd 07eb e03c 8bad 163d
00000260: 1223 173d db8b 5b3b 195b 973c 1f47 a2bc
00000270: e461 12bd 9945 58bc bb4a 843c 4d75 24bd
00000280: a3df 073d 8ae5 8abc 8986 b0bc 1e47 033d
00000290: 4d7c 183d 9a52 c7bd c317 15bd 190b 753d
000002a0: 9227 813c 7d6f 133c 1cf8 0b3d 5939 c2ba
000002b0: 0efb 12bb 4f1f 803d ddfd a63c 4c41 3bbb
000002c0: 5518 2fbd 3664 87bb 3470 3abd fc26 55bd
000002d0: 0dc2 bbbc 91d4 9b3c d17f 9c3d b3fa 0fbc
000002e0: 7739 823d e6dd 593c da34 2fbc 9f7d 093c
000002f0: dd2b a13c a988 c6bd 8a1c 233d e5fa 98bc
00000300: d3a1 bebb 357a 0fbd f8bc 34bd 3271 f2bc
00000310: 6ed2 38bd 81b2 183b e2e0 b9bd 0b8d 213d
00000320: 5ffc e03c 134a 19be cb82 af3b a98f 9fbc
00000330: 533c 91bc ddbf bb3c 6482 9dbd 36b0 19bd
00000340: 94cb bebd 99c8 463d 07c1 9dbc 1bc8 523c
00000350: 1349 efbc b56a a7bc 74b8 413b 6822 88bc
00000360: e7db 68bc 48bb babd 772a 6a3d 3b77 f5bc
00000370: d06c 1b3d c403 34bc 5bf8 213c f873 2a3d
00000380: b5d3 40bd d70d a63c fe2d a0bc 1a08 d63c
00000390: af88 bfbc 7edb f6bc bdf7 473c b13a d8bc
000003a0: 3772 5abc 3bb0 613d b1f2 ffbc 0423 883c
000003b0: 2da4 58bc dc0b 74bd 13e6 2a3b 6c25 98ba
000003c0: 538b 63bd 6517 d33c 1187 503c 7d8b 22bd
000003d0: 1f25 2dbd e77c f9b9 a038 adbd e43d 6fbc
000003e0: 269a 23bd f908 69bd 6e6d bbbd 70f0 37bd
000003f0: b73d 0f3d ef37 8ebc 4375 163c eeeb bcbc

blocks.2.bn.weight f4 [32]
1.5509267 1.0771321 1.6771737 1.5363971 1.2911319 1.3455306 1.2515365 1.3137282
1.4668653 1.2013994 1.2050954 1.1396208 1.0447757 1.1285784 1.6314517 1.1016835
1.2263514 1.2830398 1.6230099 1.3593668 1.9028946 1.785603 1.0742707 1.168944
1.0852542 1.6550169 1.1742295 1.2571391 1.1679083 1.1574422 1.2273903 1.5353566
00000000: c484 c63f 77df 893f a1ad d63f a9a8 c43f
00000010: cf43 a53f 593a ac3f 5932 a03f 3f28 a83f
00000020: 3ec2 bb3f 75c7 993f 9140 9a3f 18df 913f
00000030: 36bb 853f 4275 903f 69d3 d03f f703 8d3f
00000040: 15f9 9c3f a63a a43f cabe cf3f bbff ad3f
00000050: 0d92 f33f a48e e43f b481 893f f59f 953f
00000060: 9ce9 8a3f 98d7 d33f 274d 963f efe9 a03f
00000070: 057e 953f 1127 943f 201b 9d3f 9186 c43f

blocks.2.bn.bias f4 [32]
0.5642647 0.20664126 0.6636601 0.6102614 0.36326212 0.4459614 0.24654034 0.37554812
0.5033679 0.22794005 0.26706228 0.30696014 0.11560052 0.21954076 0.82384706 0.1807028
0.22727346 0.31359774 0.6466002 0.40788394 0.89543355 0.83706945 0.10292103 0.22404169
0.27510887 0.7474501 0.21809834 0.35853368 0.23524186 0.18720426 0.27449468 0.56367415
00000000: a773 103f c499 533e a1e5 293f 173a 1c3f
00000010: 7efd b93e 0d55 e43e 1275 7c3e d847 c03e
00000020: b8dc 003f 1e69 693e 63bc 883e e129 9d3e
00000030: f7bf ec3d 4bcf 603e a4e7 523f 280a 393e
00000040: 60ba 683e e28f a03e 9787 253f 2ad6 d03e
00000050: 223b 653f 2f4a 563f 43c8 d23d 2f6b 653e
00000060: 12db 8c3e e458 3f3f 2c55 5f3e ba91 b73e
00000070: 3ee3 703e 79b2 3f3e 918a 8c3e f34c 103f

blocks.2.bn.running_mean f4 [32]
-0.96996504 0.49793214 -1.2814226 -0.7805159 -0.18974042 -0.48361516 0.017647542 -0.8595182
-0.19441278 -0.82334256 0.10978498 0.18916199 0.49671084 0.17162248 -0.964933 0.4311799
0.03670917 -0.42625952 -0.8965114 -0.5629174 -1.1641532 -0.79958886 0.20098688 -1.2001243
0.26205114 -0.9977688 -0.6529588 0.17700854 -0.8873926 -0.6217778 -0.48475432 -0.8487533
00000000: a14f 78bf f6f0 fe3e a805 a4bf e4cf 47bf
00000010: 504b 42be 689c f7be 9491 903c 6209 5cbf
00000020: 2514 47be 94c6 52bf f3d6 e03d aeb3 413e
00000030: e250 fe3e cebd 2f3e d905 77bf 9dc3 dc3e
00000040: 5b5c 163d b03e dabe c581 65bf 5b1b 10bf
00000050: f902 95bf dbb1 4cbf 81cf 4d3e ac9d 99bf
00000060: 912b 863e c76d 7fbf 4f28 27bf ba41 353e
00000070: 292c 63bf d42c 1fbf b831 f8be e547 59bf

blocks.2.bn.running_var f4 [32]
0.6530219 0.30525747 1.1487453 0.7823193 0.46490356 0.5145781 0.70596135 0.8081616
0.9589544 0.5106668 0.27522278 0.26264697 0.45615298 0.24218988 0.7920666 0.3564901
0.5799152 0.72590965 0.7927359 0.7597689 1.0609698 0.78846633 0.22814919 0.6294791
0.31770647 0.7556322 0.3011103 0.33263934 0.3627645 0.36630893 0.5666433 0.8290292
00000000: 712c 273f b54a 9c3e 160a 933f 1446 483f
00000010: d707 ee3e 64bb 033f e2b9 343f aee3 4e3f
00000020: 097e 753f 0fbb 023f 00ea 8c3e aa79 863e
00000030: e28c e93e a000 783e e0c4 4a3f df85 b63e
00000040: 5375 143f 37d5 393f bdf0 4a3f 3780 423f
00000050: dccd 873f eed8 493f f19f 693e 8b25 213f
00000060: 6caa a23e 1d71 413f 212b 9a3e b44f aa3e
00000070: 45bc b93e d88c bb3e 890f 113f 423b 543f

head_p.conv.conv.weight f4 [2, 32, 1, 1]
0.37285998 -0.15281546 0.54688036 0.47742486 0.4217267 0.09716311 -0.27225932 0.018504854
0.31634584 0.4456066 -0.27443993 -0.24770118 -0.29410422 -0.22349858 0.59416854 -0.08596219
-0.15017645 -0.023140738 0.46837938 0.23600021 0.5667213 0.42092696 0.13059047 0.21934418
-0.24989681 0.4838833 0.25287202 -0.35121495 0.2369746 0.30719724 -0.08605874 0.47578412
0.34893477 -0.25857526 0.40966165 0.4995287 0.06441967 0.50540215 0.27610955 0.40625554
0.5218035 -0.0019351628 -0.39411166 -0.2984028 -0.009880461 -0.24355002 0.45221227 -0.32874653
0.29008305 0.4123783 0.4751147 0.44542086 0.5211415 0.46998492 -0.21831551 0.1403683
-0.24889778 0.43467855 0.04622515 -0.37436533 0.08768502 -0.07813666 0.38575137 0.4497124
00000000: 81e7 be3e a87b 1cbe 5a00 0c3f 0871 f43e
00000010: 90ec d73e 74fd c63d 9365 8bbe 7e97 973c
00000020: 15f8 a13e 8c26 e43e 6483 8cbe 61a5 7dbe
00000030: d494 96be d0dc 64be 6e1b 183f f20c b0bd
00000040: dbc7 19be a591 bdbc 6ccf ef3e 0aaa 713e
00000050: a614 113f bd83 d73e 82b9 053e c39b 603e
00000060: f3e4 7fbe 8dbf f73e 7178 813e 72d2 b3be
00000070: 78a9 723e f548 9d3e 913f b0bd fa99 f33e
00000080: 94a7 b23e fa63 84be 2cbf d13e 3ac2 ff3e
00000090: 76ee 833d 0962 013f 3b5e 8d3e ba00 d03e
000000a0: ea94 053f 4aa5 fdba 01c9 c9be 40c8 98be
000000b0: a8e1 21bc 2d65 79be 5e88 e73e 7751 a8be
000000c0: c485 943e 4023 d33e 3c42 f33e 340e e43e
000000d0: 8869 053f dda1 f03e 1a8e 5fbe b5bc 0f3e
000000e0: 0fdf 7ebe 308e de3e 9556 3d3d d0ac bfbe
000000f0: 3494 b33d 1d06 a0bd 3481 c53e b440 e63e

head_p.conv.conv.bias f4 [2]
0.7058704 0.7792449
00000000: ecb3 343f 987c 473f

head_p.fc.weight f4 [66, 132]
-0.17149551 0.076025054 0.099496484 0.15150532 -0.21487226 0.0017906851 -0.052943636 -0.004323784
-0.013452709 0.0058866167 -0.21625686 -0.2449336 -0.20647891 0.017851971 0.064001314 -0.03239499
-0.23113605 0.0019850247 -0.123869635 -0.0025792257 -0.13732311 0.046767753 -0.16885383 0.02410008
-0.23465995 0.0075344616 0.11706333 0.08555078 0.09732433 -0.17490113 -0.20296969 -0.0022439656
-0.16506524 0.031189008 -0.17023106 0.034967907 -0.24820526 0.0121166 0.080432996 0.14103448
0.055535324 -0.21722688 -0.18194224 -0.0023835031 -0.213066 0.0214157 -0.15346287 0.036378432
-0.2544062 -0.0015946047 0.05902567 0.12937185 0.08266824 -0.25580105 -0.18520819 -0.0014619301
-0.09477721 -0.20431268 -0.13155608 -0.006664033 -0.17100134 -0.015879646 -0.13850652 0.013943262
0.010111552 -0.15938814 -0.0190764 0.14504957 0.10202845 0.06843984 -0.013136238 0.00068632263
-0.1994424 -0.23177363 -0.15734349 0.053674452 -0.0066485433 -0.09358992 -0.1891196 -0.25204965
0.10722548 -0.1859883 -0.12885396 -0.21261315 -0.08777932 -0.22206625 -0.13410537 0.10788975
-0.087813325 0.0044296086 -0.10345274 -0.19808432 0.1297641 0.108946115 0.056822255 -0.17962264
-0.1849792 -0.13216837 -0.13299395 0.14613716 -0.12600105 0.0041242084 -0.24159706 -0.09435379
0.07013403 0.07110952 0.121010214 -0.19326161 -0.13309002 -0.13419908 -0.202637 0.1389372
-0.117855124 0.005446731 -0.20819952 -0.15462624 0.06543525 0.101719424 0.13738672 -0.12490509
-0.24700023 -0.14183222 -0.15676975 -0.004666205 -0.14884493 -0.18854985 -0.14435187 -0.16084903
-0.01665289 0.055054206 0.059263594 -0.036831457 0.030866256 0.017957592 0.041623782 0.06274884
-0.02708508 0.015451456 -0.05311634 -0.015914818 -0.031563822 0.030307014 -0.11519036 0.0010926544
0.0053987443 -0.013397797 0.04406976 -0.055904746 -0.06674936 -0.03130883 -0.12311349 -0.016188132
-0.0770722 0.07339296 -0.097858615 0.05499375 -0.10559336 0.0034359794 0.049752954 0.102971785
0.059200063 0.0073071336 -0.039667435 -0.008069918 -0.04710346 0.04998002 -0.10328375 0.0076715653
-0.10025912 -0.0030495555 0.0013307821 -0.010612705 0.012713878 -0.10436367 -0.09526016 -0.009048489
-0.07176742 0.051266767 -0.10720259 0.05016374 -0.08010527 0.014323017 0.08477085 0.07553905
0.0008458516 -0.08885452 -0.050653804 0.0060491743 0.035920635 -0.02255479 -0.023075348 -0.012699661
-0.118076086 -0.03190546 -0.124825165 0.031480897 0.043608326 -0.10403063 -0.06070022 0.07434982
0.10232128 0.007519557 -0.03250604 0.009137562 -0.067040555 -0.054658078 -0.109818496 0.04472142
-0.022354871 -0.07840886 -0.094222434 -0.12521714 0.027657464 -0.098741606 -0.048311323 -0.10519603
0.013300994 -0.05556894 -0.0051355883 -0.012511145 -0.1205094 0.022001341 -0.046797432 -0.075430654
0.09297317 0.07762271 0.017529394 -0.058975942 -0.1273395 -0.006777765 -0.071002655 -0.031322844
-0.021733247 0.019440472 -0.09245106 -0.057928592 0.09003596 0.030205047 0.04063404 -0.1036977
0.031613156 -0.097819895 -0.07021697 0.041952718 -0.07262183 0.030625168 -0.06812993 -0.079812884
0.018854119 0.102452025 0.017114203 0.00082190894 -0.048199475 -0.022455882 0.026530778 -0.024575964
00000000: 859c 2fbe 06b3 9b3d d0c4 cb3d 3624 1b3e
00000010: 7907 5cbe 6cb5 ea3a 6ddb 58bd 87ae 8dbb
00000020: c068 5cbc 85e4 c03b 7072 5dbe e0cf 7abe
00000030: 356f 53be 4c3e 923c 1f13 833d 9cb0 04bd
00000040: eeae 6cbe 3017 023b 5daf fdbd 3a08 29bb
00000050: 6e9e 0cbe 8b8f 3f3d 05e8 2cbe 886d c53c
00000060: b34a 70be a5e3 f63b e6be ef3d 3f35 af3d
00000070: fa51 c73d 4819 33be 49d7 4fbe 7f0f 13bb
00000080: dd06 29be 1780 ff3c 0d51 2ebe 823a 0f3d
00000090: 8529 7ebe b484 463c 0eba a43d 586b 103e
000000a0: 0279 633d b970 5ebe 114f 3abe 8c34 1cbb
000000b0: f92d 5abe fa6f af3c 5f25 1dbe 8d01 153d
000000c0: 8841 82be 0e02 d1ba e7c4 713d 0e7a 043e
000000d0: f74d a93d 5bf8 82be 37a7 3dbe 3c9e bfba
000000e0: 8e1a c2bd 5837 51be a3b6 06be f65d dabb
000000f0: fa1a 2fbe 0816 82bc a7d4 0dbe 4872 643c
00000100: ecaa 253c a536 23be 1c46 9cbc e087 143e
00000110: 4bf4 d03d 302a 8c3d 6039 57bc 55ea 333a
00000120: a13a 4cbe 1156 6dbe a71e 21be bed9 5b3d
00000130: 06dc d9bb 12ac bfbd 92a8 41be a70c 81be
00000140: 0899 db3d b873 3ebe 4bf2 03be 43b7 59be
00000150: a5c5 b3bd 5665 63be eb52 09be 4df5 dc3d
00000160: 79d7 b3bd 4026 913b 08df d3bd 9ed6 4abe
00000170: e1e0 043e 241f df3d 74be 683d ffee 37be
00000180: 306b 3dbe 2557 07be 912f 08be fba4 153e
00000190: 6b06 01be 5e24 873b 3865 77be 8f3c c1bd
000001a0: 6ea2 8f3d dea1 913d 34d4 f73d 5fe6 45be
000001b0: c048 08be 7c6b 09be 1380 4fbe 8e45 0e3e
000001c0: 075e f1bd 7e7a b23b 4132 55be 5756 1ebe
000001d0: eb02 863d 4652 d03d 1baf 0c3e 3dce ffbd
000001e0: a1ed 7cbe 773c 11be 4088 20be f7e6 98bb
000001f0: ce6a 18be 3613 41be fad0 13be 9cb5 24be
00000200: a46b 88bc 8580 613d 62be 723d 95dc 16bd
00000210: 3bdb fc3c cd1b 933c b37d 2a3d 7782 803d
00000220: 88e1 ddbc 1b28 7d3c 8590 59bd cb5f 82bc
00000230: 1149 01bd 6a46 f83c ece8 ebbd 6637 8f3a
00000240: f3e7 b03b 6f82 5bbc 7e82 343d 60fc 64bd
00000250: e3b3 88bd b03d 00bd ed22 fcbd f99c 84bc
00000260: 08d8 9dbd 0c4f 963d 196a c8bd 2041 613d
00000270: 5541 d8bd 2b2e 613b c1c9 4b3d dfe2 d23d
00000280: c47b 723d ae70 ef3b 527a 22bd b037 04bc
00000290: 8fef 40bd d9b7 4c3d 6e86 d3bd c161 fb3b
000002a0: a754 cdbd 0ddb 47bb a36d ae3a e9e0 2dbc
000002b0: df4d 503c 9fbc d5bd c217 c3bd 1d40 14bc
000002c0: ccfa 92bd 1afd 513d 088d dbbd 7e78 4d3d
000002d0: 3b0e a4bd 16ab 6a3c 579c ad3d 38b4 9a3d
000002e0: 24bc 5d3a 5cf9 b5bd 5d7a 4fbd 2738 c63b
000002f0: 8421 133d d3c4 b8bc 8308 bdbc 3d12 50bc
00000300: e0d1 f1bd 4daf 02bd 56a4 ffbd 1df2 003d
00000310: a59e 323d 030e d5bd cba0 78bd b844 983d
00000320: d28d d13d 9e66 f63b 0e25 05bd b6b5 153c
00000330: 8f4c 89bd 26e1 5fbd 85e8 e0bd cf2d 373d
00000340: 9021 b7bc d394 a0bd b1f7 c0bd ec38 00be
00000350: e891 e23c 0a39 cabd 18e2 45bd 0471 d7bd
00000360: 6aec 593c 429c 63bd 7048 a8bb 8cfb 4cbc
00000370: a2cd f6bd 283c b43c aaae 3fbd 637b 9abd
00000380: b868 be3d a8f8 9e3d ce99 8f3c c290 71bd
00000390: 4965 02be 0418 debb d769 91bd 624c 00bd
000003a0: ec09 b2bc a041 9f3c fb56 bdbd 8846 6dbd
000003b0: c664 b83d 9370 f73c e16f 263d 765f d4bd
000003c0: cc7c 013d cc55 c8bd eacd 8fbd 9dd6 2b3d
000003d0: c1ba 94bd a2e1 fa3c b487 8bbd f074 a3bd
000003e0: f473 9a3c 5ed2 d13d 1633 8c3c 6075 573a
000003f0: d06c 45bd 66f5 b7bc 1357 d93c 8853 c9bc

head_v.conv.conv.weight f4 [1, 32, 1, 1]
0.13652566 0.0048137675 -0.058735847 -0.110590436 -0.03562999 0.040865593 0.023346724 -0.011996385
0.024988076 0.12764394 -0.038530488 -0.07988709 0.114211015 0.034061063 -0.04358188 0.01936891
-0.0072140717 -0.08312112 -0.13137347 -0.03268879 0.07132626 -0.033653926 0.0034794156 0.010279292
-0.094963 -0.014325183 -0.05216133 0.083276995 0.030753097 -0.09955111 -0.104907624 0.08550768
00000000: 62cd 0b3e cfbc 9d3b 0095 70bd 3d7d e2bd
00000010: c1f0 11bd ae62 273d a141 bf3c 7c8c 44bc
00000020: cbb3 cc3c 18b5 023e 25d2 1dbd d89b a3bd
00000030: 77e7 e93d 9d83 0b3d ea82 32bd 8cab 9e3c
00000040: 0564 ecbb 683b aabd c486 06be aee4 05bd
00000050: 8113 923d b3d8 09bd e806 643b 7a6a 283c
00000060: f67b c2bd 2cb4 6abc 1ea7 55bd 218d aa3d
00000070: ebed fb3c 74e1 cbbd cfd9 d6bd a71e af3d

head_v.fc.weight f4 [1, 66]
-0.04163354 -0.0029857343 -0.032634806 -0.008861786 -0.04326711 -0.03981525 -0.10401494 0.065494634
0.0004078986 -0.06682749 -0.018078072 0.018303383 -0.057260633 0.0034042066 -0.09588052 0.044739686
-0.009257083 0.0034859956 0.022235906 0.0034755357 -0.018262288 -0.048010495 0.035840075 -0.039221343
-0.008270004 -0.1196913 0.10398054 -0.0010582461 -0.005324441 0.011231153 -0.008699082 0.08675852
0.06132685 0.017150408 -0.063523434 -0.023797011 0.036293127 0.094510145 -0.047663566 -0.0013757787
0.07971651 0.023111358 -0.017993899 0.041566603 -0.009631263 -0.003094422 0.0029512574 0.07643937
0.03050211 -0.021934435 0.081282064 0.0018820635 -0.023640638 -0.072292835 -0.037289698 0.052460823
0.012964533 0.00215428 -0.029773183 0.06692071 0.02985658 0.062205847 -0.026329191 -0.030311976
-0.037514668 0.022651233
00000000: ee87 2abd 4fac 43bb 13ac 05bd 0631 11bc
00000010: da38 31bd 5115 23bd c905 d5bd 0d22 863d
00000020: 39db d539 dadc 88bd 7718 94bc faf0 953c
00000030: 208a 6abd 1c19 5f3b 025d c4bd f640 373d
00000040: 05ab 17bc 4d75 643b 1328 b63c d0c5 633b
00000050: cb9a 95bc a7a6 44bd 0bcd 123d 8fa6 20bd
00000060: e97e 07bc b620 f5bd c0f3 d43d d9b4 8aba
00000070: a678 aebb df02 383c 9886 0ebc 73ae b13d
00000080: dd31 7b3d 037f 8c3c 9318 82bd f3f1 c2bc
00000090: 1aa8 143d 898e c13d df3a 43bd 7953 b4ba
000000a0: 6942 a33d 0854 bd3c f167 93bc be41 2a3d
000000b0: 72cc 1dbc c9cb 4abb e269 413b 3f8c 9c3d
000000c0: 90df f93c d8af b3bc 3677 a63d 92af f63a
000000d0: 03aa c1bc 440e 94bd 15bd 18bd 29e1 563d
000000e0: 3169 543c d22e 0d3b e4e6 f3bc ba0d 893d
000000f0: c995 f43c 8fcb 7e3d 51b0 d7bc d250 f8bc
00000100: fba8 19bd 148f b93c
